dqn_model.pt (torch, 96980 bytes, 10 tensors)

fc1.weight f4 [128, 24]
0	0xbd8644fe	-0.06556128
1	0xbd8bb02f	-0.06820714
2	0x3de8e8a6	0.11372499
3	0xbe09a531	-0.13441922
4	0xbd35bda9	-0.044370327
5	0xbe402c75	-0.18766959
6	0xbb8d8dc2	-0.0043198774
7	0xbe4a239f	-0.19740151
8	0x3dd51226	0.10403852
9	0xbe30324d	-0.17206688
10	0xbdcdd15d	-0.100496985
11	0x3df4d2e9	0.119542904
12	0x3d1985f0	0.03748125
13	0xbc9e4875	-0.01932166
14	0xbdbe3fd7	-0.0928952
15	0x3cd50cd7	0.0260071
16	0x3df07e6f	0.11742865
17	0x3e11cb39	0.1423768
18	0x3d01fc54	0.03173478
19	0x3cb85d40	0.022505403
20	0x3dd17636	0.10227625
21	0x3d05e975	0.032693345
22	0x3e19593b	0.14975445
23	0x3e37d6ba	0.17953005
24	0x3e03fca2	0.1288934
25	0x3dbf2023	0.093323015
26	0x3df8938c	0.12137517
27	0xbd788bd6	-0.060680233
28	0xbd7431f8	-0.059617966
29	0x3e14a0b2	0.14514425
30	0xbd5bae71	-0.053633157
31	0x3dfba69a	0.12287636
32	0xbdbd32b1	-0.09238184
33	0x3d3f8ac2	0.04676319
34	0x3e5043c1	0.20338346
35	0x3d63b4fc	0.055592522
36	0x3e6588c3	0.22415452
37	0xbdbe54f5	-0.09293548
38	0xbd6944ac	-0.056950256
39	0x3d9693f4	0.073524386
40	0x3daf920d	0.08572779
41	0x3cfd4318	0.030915782
42	0xbde59cc5	-0.11211542
43	0x3d8f1d75	0.0698804
44	0x3d7037b4	0.058646873
45	0x3d1f9394	0.0389591
46	0x3e082e9a	0.13299027
47	0x3dadfdff	0.084957115
48	0x3cc49615	0.023997346
49	0x3dc4ece9	0.096154995
50	0x3da8a4e8	0.08234578
51	0x3d91f28d	0.07126341
52	0x3c931f13	0.017959153
53	0x3d5d0ed9	0.053969238
54	0x3dda0acc	0.106465906
55	0x3d3f7ed4	0.046751812
56	0x39df1e14	0.00042556284
57	0x3d8ec53b	0.069712125
58	0x3db46978	0.08809179
59	0x3dbea8a8	0.093095124
60	0x3db6f3f5	0.0893325
61	0x3d242b86	0.04008057
62	0x3e0a4ae0	0.13505125
63	0x3d95d0ba	0.07315202
64	0x3dee5e99	0.11639137
65	0x3d7b9177	0.061418023
66	0x3e3425bf	0.17592524
67	0x3d71ac9d	0.059002507
68	0x3da8e236	0.08246271
69	0x3b8fc5ef	0.004387609
70	0x3dacef7a	0.08444114
71	0x3deb66d6	0.11494224
72	0x3e00dbcf	0.1258385
73	0x3e073512	0.13203838
74	0x3d5bf3af	0.05369919
75	0x3dfe8dee	0.12429415
76	0x3e00ce72	0.12578753
77	0x3ca8d5b8	0.020609722
78	0x3e176b06	0.1478692
79	0x3db60120	0.08886933
80	0x3d56d7fb	0.05245207
81	0x3e3f8140	0.18701649
82	0x3d3c61b2	0.045991607
83	0x3e36b54e	0.178426
84	0x3d421cd6	0.04739078
85	0x3e0bfdea	0.1367108
86	0x3cd0b819	0.02547841
87	0x3dd6a093	0.10479846
88	0x3dc334da	0.09531565
89	0x3dc760f7	0.097352915
90	0x3e54c77b	0.20779221
91	0x3de1ef4e	0.11031972
92	0x3e344de6	0.17607841
93	0x3e2ce6b9	0.16884889
94	0x3d84b5a4	0.06479958
95	0x3e2ade44	0.1668635
96	0x3e114d74	0.14189702
97	0x3d011876	0.03151747
98	0xbdec6df7	-0.11544412
99	0x3e057fdf	0.1303706
100	0x3dba8069	0.091065235
101	0xbd356cad	-0.044293094
102	0xbdaaf52d	-0.08347545
103	0x3e880bbb	0.2657145
104	0x3d1196d9	0.03554425
105	0xbe1b3841	-0.15158178
106	0x3e77ff95	0.2421859
107	0x3c010d7b	0.007876749
108	0x3e0d945c	0.13826126
109	0xbe382c0b	-0.17985551
110	0xbd23f746	-0.04003074
111	0x3d8ae142	0.06781246
112	0x3d9fca57	0.07802265
113	0xbd9c0d10	-0.07619679
114	0xbd8dc031	-0.06921423
115	0x3bad9f7d	0.0052985535
116	0xbdc8eabb	-0.09810396
117	0xbe170802	-0.14749148
118	0x3c19d1df	0.009388416
119	0x3d8d925d	0.06912682
120	0xbcefa01c	-0.02925115
121	0xbd168673	-0.036749315
122	0xbd1d6991	-0.038430754
123	0xbc8d118a	-0.017220277
124	0x3af6e3ed	0.0018836238
125	0xbd7adcfa	-0.061245896
126	0x3e44044c	0.19142264
127	0xbc467d51	-0.012114839
128	0x3e5a4960	0.21317053
129	0x3d9598f2	0.07304563
130	0xbd756502	-0.05991078
131	0x3e21d31a	0.15803185
132	0xbc11625e	-0.00887355
133	0x3d12d6bc	0.035849318
134	0x3ce73ea7	0.028228117
135	0xbcb16cfd	-0.021658415
136	0x3e07e694	0.13271552
137	0xbda7b4e4	-0.08188799
138	0xbd5c4b05	-0.05378248
139	0x3d668e3a	0.05628798
140	0xbc683591	-0.0141729275
141	0xba9c508e	-0.0011925863
142	0xbe770c37	-0.24125753
143	0x3e59c2e6	0.21265754
144	0xbcc2c4b0	-0.023775429
145	0xbd159597	-0.036519613
146	0xbdc2c585	-0.0951033
147	0xbe468ba6	-0.19389209
148	0xbd929f47	-0.07159286
149	0x3dae1f18	0.085020244
150	0x3e73b3dd	0.23799081
151	0x3da81e0c	0.08208856
152	0xbe0a2754	-0.13491565
153	0xbe35ff12	-0.17773083
154	0xbd369516	-0.044575773
155	0x3d8eaa39	0.06966061
156	0xbd03ba0d	-0.032159854
157	0xbd39272e	-0.04520338
158	0xbd0767be	-0.03305792
159	0x3b998e15	0.004686127
160	0x3e50556f	0.2034509
161	0x3e867ad8	0.26265597
162	0x3caadd3d	0.020857448
163	0x3cfdc3be	0.030977126
164	0x3e0df331	0.13862301
165	0xbd26115c	-0.0405439
166	0xbd857c4c	-0.06517848
167	0x3d4a338d	0.04936557
168	0xbd589249	-0.052873883
169	0xbc325388	-0.010884173
170	0xbb755e57	-0.0037440264
171	0xbdc029e5	-0.09382991
172	0xbc4de1d0	-0.012566045
173	0x3c8d42d5	0.017243782
174	0xbbd3e437	-0.0064664143
175	0xbe3cdcd6	-0.18443617
176	0x3ce3b306	0.027795326
177	0xbd00081b	-0.03125773
178	0x3d71c6ab	0.059027355
179	0xbd64f444	-0.055897012
180	0xbac51761	-0.0015036875
181	0xbca8db52	-0.020612393
182	0xbd737f5f	-0.059447642
183	0xbb35ea17	-0.0027757937
184	0xbc9ea894	-0.019367494
185	0xbd94b67a	-0.07261367
186	0xbd1e9c9c	-0.038723573
187	0xbc595779	-0.013265484
188	0xbc15ce0b	-0.009143363
189	0xbdad1860	-0.08451915
190	0xbdd64e5e	-0.10464166
191	0xbc70df04	-0.014701609
192	0x3e148fe0	0.14508009
193	0xbd28b8a1	-0.0411917
194	0xbcabec25	-0.020986626
195	0xbe1f369b	-0.15548174
196	0x3d67983e	0.056541674
197	0xbd2bbf96	-0.041930757
198	0xbc9f0051	-0.01940933
199	0xbc8bd33b	-0.017068496
200	0x3cb5502c	0.022132955
201	0xbba8542f	-0.0051369886
202	0x3e62d667	0.221521
203	0xbe1b0966	-0.15140304
204	0xbc5c5db7	-0.013450078
205	0x3b58febb	0.0033110816
206	0xbdda640f	-0.10663616
207	0xbbd896ed	-0.0066097886
208	0xbc28b81d	-0.010297802
209	0xbd09cd4b	-0.03364305
210	0x3def9eb7	0.11700194
211	0x3dc6d50e	0.09708606
212	0xbdaab5e3	-0.083354734
213	0xbdf54065	-0.11975173
214	0x3e21f437	0.15815817
215	0x3e6dc4dc	0.23219627
216	0xbc1b4850	-0.00947769
217	0xbe03c770	-0.12869048
218	0xbc3b525e	-0.011433212
219	0xbe0f763a	-0.14009944
220	0x3cbdaf76	0.023154955
221	0xbd630804	-0.055427566
222	0xbca45548	-0.020060197
223	0xbda079ac	-0.07835707
224	0xbb3b8be0	-0.0028617308
225	0xbd0fcea1	-0.035109166
226	0xbdf4d3a8	-0.11954433
227	0xbd009ed3	-0.031401467
228	0xbd2bcb4c	-0.041941926
229	0xbca30d61	-0.01990384
230	0x3dae55a4	0.085124284
231	0x3c1f0c5f	0.009707539
232	0xbd6b2e39	-0.05741713
233	0xbe14ab86	-0.14518556
234	0xbd81dd2f	-0.063410155
235	0xbc1c1954	-0.009527523
236	0xbc086502	-0.008324863
237	0xbd9f5676	-0.07780163
238	0xbd8437a3	-0.06455924
239	0x3cad7d42	0.021177892
240	0x3bf62f05	0.0075129294
241	0x3d0d715f	0.034531947
242	0x3dcb46e5	0.099256314
243	0x3e22e92e	0.15909263
244	0x3e515bae	0.2044513
245	0xbd8a8ac4	-0.06764749
246	0x3b344856	0.0027508936
247	0xbdfc136d	-0.12308393
248	0x3d442b46	0.04789283
249	0x3d283028	0.04106155
250	0xbba110ec	-0.0049153473
251	0x3d10ae3d	0.035322417
252	0x3e65339b	0.22382967
253	0x3e8dde20	0.2770853
254	0x3e0ce9cc	0.13761061
255	0xbd057a24	-0.032587186

fc1.bias f4 [128]
0	0x3e38967f	0.1802616
1	0xbe76f447	-0.24116622
2	0xbe963e77	-0.29344532
3	0xbeea0016	-0.4570319
4	0x3cebe54a	0.028795857
5	0x3da92181	0.082583435
6	0x3df73a4a	0.12071665
7	0x3f05eaa6	0.5231117
8	0xbd56c781	-0.052436356
9	0x3efe3a41	0.4965382
10	0xbe8debde	-0.27719015
11	0x3e4fe51a	0.20302239
12	0xbe40eb9d	-0.1883988
13	0x3e19b448	0.15010178
14	0x3edfb245	0.43690696
15	0xbdcc5ae1	-0.09978271
16	0xbdea4a98	-0.11440009
17	0x3dddfdcd	0.10839424
18	0xbd2bc2c4	-0.04193379
19	0x3edc9eb2	0.43089825
20	0xbe1f9126	-0.15582713
21	0xbdecaad5	-0.11556021
22	0x3e42edca	0.19036022
23	0x3d7cde4c	0.061735436
24	0xbe3469b1	-0.17618443
25	0xbeb67643	-0.35637102
26	0x3c8ff72c	0.017573915
27	0xbda06f12	-0.07833685
28	0xbdcaa108	-0.098939955
29	0x3cc6e362	0.024278346
30	0xbdf44459	-0.11927099
31	0x3e9e0201	0.30860904
32	0x3b2a3ec3	0.002597735
33	0x3d17da54	0.03707345
34	0x3cec8437	0.028871639
35	0xbeb24bc0	-0.34823418
36	0x3c8e18de	0.017345842
37	0xbd16545d	-0.03670155
38	0x3e18d644	0.14925486
39	0x3da3632f	0.07977902
40	0xbe992bab	-0.2991613
41	0xbe5e6cdc	-0.21721214
42	0xbdbfdd7e	-0.09368418
43	0xbd83b254	-0.06430498
44	0x3d0e82c6	0.034792684
45	0x3e8326f3	0.25615653
46	0xbdd344ac	-0.103158325
47	0xbe42d1c2	-0.19025329
48	0x3d255da3	0.040372502
49	0xbde17005	-0.11007694
50	0x3e221a28	0.1583029
51	0xbdeb90db	-0.11502238
52	0x3f04219a	0.5161377
53	0xbc6be180	-0.014397025
54	0x3ef52387	0.47878668
55	0x3dbc81e6	0.09204464
56	0xbbb377d3	-0.0054769306
57	0x3e25b256	0.16181311
58	0x3d466644	0.04843737
59	0xbd6fd3c9	-0.058551583
60	0xbc90d1b0	-0.017678112
61	0x3ebb000e	0.3652348
62	0xbe0ad283	-0.13556866
63	0x3ea1b317	0.31581947
64	0x3f080405	0.53131133
65	0xbea6a93a	-0.32550985
66	0xbdcedde6	-0.101009175
67	0xbedd05e6	-0.43168563
68	0xbe0238bd	-0.12716956
69	0xbc81c1ce	-0.015839484
70	0xbea830bb	-0.32849678
71	0x3e86f068	0.2635529
72	0xbc112f05	-0.008861308
73	0x3cc32f59	0.023826288
74	0xbe61266a	-0.2198731
75	0xbc86fb0d	-0.016477132
76	0xbcba17f9	-0.02271651
77	0xbba13afb	-0.004920361
78	0xbe6aab9b	-0.22917025
79	0x3b18fe95	0.0023345102
80	0x3c598c2d	0.013278049
81	0xbd7d9952	-0.061913796
82	0xbdf9ebc2	-0.1220317
83	0xbe8bfc15	-0.2734076
84	0x3ee7beb8	0.45262694
85	0xbe226455	-0.15858586
86	0x3e91762e	0.28410476
87	0xbc8153ea	-0.015787084
88	0xbdeafbad	-0.114737846
89	0xbe34aa40	-0.1764307
90	0x3d363e48	0.04449299
91	0x3ebe0c84	0.37118924
92	0x3e3753f8	0.17903125
93	0x3d610933	0.054940414
94	0xbdf0ffab	-0.11767515
95	0xbe14953a	-0.1451005
96	0x3e312e30	0.17302775
97	0x3f03c895	0.5147794
98	0x3e1cfdf0	0.15331244
99	0x3ba14888	0.0049219765
100	0xbe440361	-0.19141914
101	0x3ea6531e	0.32485288
102	0x3e1134dd	0.14180322
103	0xbe4c84ba	-0.19972506
104	0x3d13cd11	0.03608424
105	0xbe2cfcf3	-0.16893367
106	0xbe3b5de6	-0.18297538
107	0x3e1be4de	0.15224025
108	0xbe3102a3	-0.17286162
109	0xbd242391	-0.04007298
110	0xbe6cf8e1	-0.23141815
111	0xbbe60bc4	-0.0070204455
112	0xbef46d3d	-0.47739592
113	0xbe8c8f6c	-0.27453172
114	0xbc134e07	-0.008990771
115	0xbd16aad0	-0.036783993
116	0xbde57312	-0.112035885
117	0x3da7a9b1	0.08186663
118	0x3ec63d9f	0.38718888
119	0xbeccf8db	-0.40033612
120	0xbe91fbca	-0.28512412
121	0xbc29b30a	-0.010357628
122	0xbebc95d3	-0.36833057
123	0xbe88ed8a	-0.26743728
124	0x3e8caaf8	0.2747419
125	0x3c74ebfa	0.014948839
126	0xbdc46934	-0.095903784
127	0xbeb50392	-0.35354286

bn1.weight f4 [128]
0	0x3f7cdb26	0.98771894
1	0x3f54c751	0.8311663
2	0x3f2da475	0.67829067
3	0x3f0b72b1	0.5447188
4	0x3f7ec2cc	0.99515986
5	0x3f64ab23	0.89323634
6	0x3f842f22	1.0326884
7	0x3f9f649b	1.2452577
8	0x3f90c87e	1.1311185
9	0x3faf026d	1.3672615
10	0x3f432414	0.76226926
11	0x3f65275a	0.8951317
12	0x3f2fb9cf	0.68642896
13	0x3f829514	1.0201745
14	0x403e6f4e	2.9755435
15	0x3f5a4d75	0.8527444
16	0x3f848457	1.0352887
17	0x3f8a7633	1.0817322
18	0x3f8a7628	1.0817308
19	0x3f9407ea	1.1564915
20	0x3f8d572d	1.1042229
21	0x3f8cfdbf	1.1014937
22	0x3f917536	1.1363895
23	0x3f725a61	0.9466916
24	0x3f8c6ce5	1.0970732
25	0x3f14ffe1	0.5820294
26	0x3f56c5d9	0.8389564
27	0x3f81900e	1.0122087
28	0x3f7af9d4	0.9803746
29	0x3f600114	0.87501645
30	0x3f7612fd	0.96122724
31	0x3f7b202e	0.9809598
32	0x3f61987e	0.8812331
33	0x3f937f00	1.1523132
34	0x3f8c54b3	1.0963348
35	0x3f3608b1	0.7110701
36	0x3f4922cd	0.78568727
37	0x3f8630ff	1.0483702
38	0x3f838460	1.0274773
39	0x3f629f17	0.88524
40	0x3f353c59	0.7079521
41	0x3f82795d	1.0193287
42	0x3f7c8e56	0.9865469
43	0x3f92971f	1.1452368
44	0x3f733d47	0.95015377
45	0x3f82d1ae	1.0220239
46	0x3f6ebbf5	0.9325555
47	0x3f8f9ebb	1.1220316
48	0x3f84689a	1.0344422
49	0x3f69af76	0.9128336
50	0x3f6125d6	0.8794836
51	0x3f7bf993	0.98427695
52	0x3f9c704e	1.2221773
53	0x3f874cac	1.0570273
54	0x3fb4ab18	1.4114714
55	0x3f92676c	1.1437812
56	0x3f87a6f5	1.0597826
57	0x3f505821	0.81384474
58	0x3f8e53de	1.1119344
59	0x3f75de22	0.9604207
60	0x3f87be02	1.0604861
61	0x3f9a3e18	1.20502
62	0x3f8e33c2	1.1109545
63	0x3f9074d8	1.1285658
64	0x3fa32856	1.2746685
65	0x3f3d972e	0.74058807
66	0x3f722e16	0.9460157
67	0x3f3efe44	0.7460673
68	0x3f703602	0.9383241
69	0x3f95d6a9	1.1706134
70	0x3f674498	0.9033904
71	0x3f7394d0	0.95148945
72	0x3f8b3446	1.0875328
73	0x3f5e17bd	0.8675497
74	0x3f828423	1.0196575
75	0x3f574243	0.8408548
76	0x3f1d0c15	0.6134656
77	0x3f85ee2b	1.0463308
78	0x3f2d4021	0.6767598
79	0x3f42e286	0.761269
80	0x3f6e2716	0.9302839
81	0x3f7d2098	0.9887786
82	0x3f8957a3	1.072987
83	0x3f4845d2	0.7823154
84	0x3f8e9599	1.1139404
85	0x3f7ea66f	0.9947271
86	0x3f85f0e7	1.0464143
87	0x3f9f4494	1.2442803
88	0x3f8533cd	1.0406433
89	0x3f78f041	0.972416
90	0x3f590374	0.84770894
91	0x3f7e2144	0.9926951
92	0x3f64391c	0.8914964
93	0x3f749625	0.955416
94	0x3f24b6dd	0.6434153
95	0x3f2eb748	0.68248415
96	0x3f687a37	0.90811485
97	0x40340ea3	2.8133934
98	0x3f983df1	1.1893903
99	0x3f516b00	0.81803894
100	0x3f82a790	1.0207386
101	0x3f867a85	1.050614
102	0x3f8072d8	1.0035048
103	0x3f8b9007	1.0903329
104	0x3f828e18	1.0199614
105	0x3f9b65ae	1.2140405
106	0x3f86ecb0	1.0540981
107	0x3f852f62	1.0405085
108	0x3f7b66d9	0.9820381
109	0x3f6eaade	0.9322947
110	0x3f817de2	1.0116541
111	0x3f8229c9	1.0169002
112	0x3f1f8a4d	0.62320405
113	0x3f333d0e	0.7001504
114	0x3f86e35d	1.0538136
115	0x3f78e3c1	0.97222525
116	0x3f8af91a	1.085727
117	0x3f827aad	1.0193688
118	0x3f8bbbb6	1.091666
119	0x3f4f4ee9	0.8097978
120	0x3f5484d0	0.83015156
121	0x3f751c41	0.9574624
122	0x3f3bb26c	0.73319125
123	0x3f1679dc	0.5877969
124	0x3f6bdffb	0.9213864
125	0x3f4b3abc	0.79386497
126	0x3f862bec	1.0482154
127	0x3f5482b1	0.8301192

bn1.bias f4 [128]
0	0xbe058fc2	-0.1304312
1	0xbe9cfae0	-0.30660152
2	0xbf0f3997	-0.5594725
3	0xbf35d41f	-0.71026796
4	0xbe22ac02	-0.15885928
5	0xbeb5ffeb	-0.35546812
6	0xbe3d6fc3	-0.18499665
7	0x3de6709f	0.112519495
8	0xbdbd7402	-0.09250642
9	0x3d5a8c8a	0.053356685
10	0xbed7efce	-0.42175144
11	0xbe7b4c2c	-0.24540776
12	0xbf00f1d0	-0.50368977
13	0xbda9861c	-0.082775325
14	0xbc25ff0b	-0.010131608
15	0xbed9973f	-0.42498204
16	0xbe2c5039	-0.16827478
17	0xbbfbcf47	-0.0076846215
18	0xbd6469fe	-0.055765145
19	0xbbfbff92	-0.0076903785
20	0xbdc05877	-0.09391873
21	0xbdf20e2d	-0.1181911
22	0xbbc697d8	-0.0060605817
23	0xbe21b272	-0.15790728
24	0xbe07959b	-0.13240664
25	0xbf3123e1	-0.6919537
26	0xbe9fe4cb	-0.31229243
27	0xbe11cb78	-0.14237773
28	0xbe21bf9f	-0.15795754
29	0xbe6c2f55	-0.2306493
30	0xbe4bed38	-0.1991471
31	0xbdfe33f5	-0.12412254
32	0xbeb785f6	-0.35844392
33	0x3d4c03ec	0.049808428
34	0xbc40c3e1	-0.011765451
35	0xbf043bb0	-0.51653576
36	0xbec9d8a1	-0.39423087
37	0xbe242484	-0.16029555
38	0xbe56ce90	-0.20977235
39	0xbe8dfb88	-0.27730966
40	0xbf0910cd	-0.5354126
41	0xbe31e32f	-0.1737182
42	0xbe11e03f	-0.142457
43	0xbd1d5c90	-0.038418353
44	0xbe368f85	-0.17828186
45	0x3b0a0469	0.0021059758
46	0xbeac2e4c	-0.33629072
47	0xbe374bdc	-0.17900032
48	0xbe6549b2	-0.22391394
49	0xbe8349d7	-0.25642273
50	0xbeb8d60b	-0.36100802
51	0xbdb572d3	-0.088597916
52	0xbd28bb45	-0.04119422
53	0xbe8cc2fd	-0.27492514
54	0x3e02bb6d	0.1276681
55	0xbd187af1	-0.03722662
56	0xbe2921bb	-0.16516773
57	0xbec6fd50	-0.38865137
58	0xbd7e5447	-0.062092092
59	0xbe8b356e	-0.271892
60	0xbd9ae48f	-0.07563125
61	0x3d2e12de	0.042498462
62	0xbe42d5fa	-0.19026938
63	0xbd5e9ce3	-0.054348838
64	0x3d8ee3bf	0.06977033
65	0xbef71bf7	-0.48263523
66	0xbe87e568	-0.2654221
67	0xbefebb0e	-0.49752086
68	0xbe849d01	-0.25901034
69	0xbc8c3859	-0.017116712
70	0xbeb5ad68	-0.3548386
71	0xbe334827	-0.17507993
72	0x3d04e65f	0.03244626
73	0xbeaef7d4	-0.34173453
74	0xbe4bee2c	-0.19915074
75	0xbece44e7	-0.40286943
76	0xbf1182ae	-0.56840026
77	0xbe004bcb	-0.12528913
78	0xbf175a0d	-0.5912178
79	0xbefb0e84	-0.49034512
80	0xbe3e121c	-0.18561596
81	0xbe838d1b	-0.25693592
82	0xbe6dc79a	-0.23220673
83	0xbed9c144	-0.42530262
84	0x3d3cd2f4	0.046099618
85	0xbe832eba	-0.25621587
86	0xbd748cfe	-0.059704773
87	0xbdc4d40f	-0.096107595
88	0xbe37a35e	-0.17933413
89	0xbe594d8d	-0.2122099
90	0xbeca8768	-0.39556432
91	0xbd8d8aee	-0.06911264
92	0xbe3e5a2f	-0.1858909
93	0xbe0235f2	-0.12715891
94	0xbf18e0d9	-0.5971809
95	0xbeffabc9	-0.4993575
96	0xbe36650c	-0.17811984
97	0x3d65e7c0	0.056129217
98	0xbd853583	-0.06504347
99	0xbea7d9f8	-0.32783484
100	0xbe82526b	-0.25453505
101	0xbde63f2e	-0.11242519
102	0xbe46619e	-0.19373176
103	0xbe612df3	-0.21990184
104	0xbe1e46cb	-0.15456693
105	0xbdb5ab93	-0.08870616
106	0xbe4cea1d	-0.20011182
107	0xbe386cc9	-0.18010248
108	0xbe7431d8	-0.23847139
109	0xbe8173a7	-0.25283548
110	0xbe7b92af	-0.24567674
111	0x3c9cbd0c	0.019133113
112	0xbf0d5734	-0.55211186
113	0xbf101602	-0.5628358
114	0xbcd1068a	-0.025515813
115	0xbd91d7c5	-0.07121233
116	0xbda720c7	-0.08160549
117	0xbd2efbe9	-0.04272071
118	0xbda67415	-0.0812761
119	0xbedc2c3f	-0.43002507
120	0xbecea6ec	-0.40361726
121	0xbe042305	-0.12903984
122	0xbeee52b6	-0.46547478
123	0xbf27a027	-0.6547875
124	0xbdd942c0	-0.10608435
125	0xbec0b65b	-0.37639126
126	0xbdb2de58	-0.08733815
127	0xbec6e865	-0.38849178

fc2.weight f4 [128, 128]
0	0xbdfbcfcf	-0.12295496
1	0xbd20355d	-0.03911339
2	0x3c85b331	0.016320797
3	0x3c21cf9b	0.009876157
4	0x3d87ae59	0.06625051
5	0xbccc3b6c	-0.024930678
6	0xbd006fd5	-0.03135665
7	0x3d22ac64	0.039715186
8	0x3d1fe87d	0.039040077
9	0x3dd703a1	0.10498739
10	0x3b5445b6	0.0032390184
11	0x3cb0b51e	0.021570738
12	0xbc6d5727	-0.014486111
13	0xbcb1529b	-0.021645835
14	0x3c081352	0.008305388
15	0x3b8ce0d4	0.0042992625
16	0xbda7978a	-0.08183201
17	0x3d4c6c49	0.049907956
18	0x3d8041ee	0.06262575
19	0x3b682994	0.0035425173
20	0x3d971ffb	0.07379147
21	0x3cfda5c3	0.03096283
22	0xbd7b1d5c	-0.061307296
23	0xbd116c10	-0.035503447
24	0x3d5ae04b	0.05343656
25	0x3c5be0d3	0.0134203015
26	0x3cc8cb15	0.0245109
27	0xbc9acbd8	-0.018896028
28	0x3de10d26	0.10988836
29	0x3a78e99b	0.0009495259
30	0xbcbca3f0	-0.02302739
31	0xbdd4e439	-0.103950925
32	0x3d4f4298	0.050600618
33	0xbd16ee26	-0.03684821
34	0xbde413e8	-0.11136609
35	0x3c9ac4b4	0.018892623
36	0x3c78b61e	0.015180139
37	0xbcb8a9aa	-0.02254184
38	0x3c14bd0f	0.009078278
39	0xbba59d5f	-0.0050541605
40	0x3b7da210	0.0038701333
41	0x3ce3e6fe	0.027820107
42	0x3ca4b0d4	0.02010385
43	0xbdd2ca54	-0.10292497
44	0x3d181911	0.03713328
45	0x3da545f1	0.08069981
46	0xbc049024	-0.008091006
47	0xbd5bc85b	-0.05365787
48	0xbd7eed19	-0.062237833
49	0x3cf1a04b	0.029495379
50	0xbdbde177	-0.0927152
51	0x3b066383	0.002050609
52	0x3d538ec4	0.051649824
53	0xbd0dec35	-0.034649093
54	0x3d211ed4	0.03933604
55	0x3db763ba	0.08954568
56	0x3d8c635f	0.06854891
57	0x3d689d08	0.05679038
58	0xbcf7e71d	-0.03026157
59	0x3c82e828	0.015979841
60	0xbde0c88c	-0.10975751
61	0x3daee8b0	0.08540475
62	0xbd43db1b	-0.047816377
63	0x3dcdbb03	0.10045435
64	0xbbd983ac	-0.006638011
65	0x3c4df522	0.012570651
66	0x3d84a06a	0.06475909
67	0x3c8199af	0.015820352
68	0xbb18586f	-0.002324607
69	0x3d91f852	0.071274415
70	0x3c88f24c	0.016717099
71	0xbcf33cb1	-0.029692026
72	0x3c51e00c	0.012809765
73	0xbcc3329f	-0.023827849
74	0xbd7137e7	-0.058891203
75	0x3bddead8	0.0067723803
76	0x3bf0ead3	0.007352212
77	0xbc719f2c	-0.014747422
78	0xbc8a5f28	-0.016891077
79	0x3d307a27	0.043085244
80	0x3d18b7fb	0.037284832
81	0xbc4426fa	-0.011972183
82	0x3ce45ca3	0.027876204
83	0x3d0fa094	0.03506525
84	0x3dcaa7ad	0.09895263
85	0xbd6c5d19	-0.057705972
86	0xbd7d4dc3	-0.061841737
87	0x3da475cb	0.0803028
88	0x3da5308f	0.080659024
89	0x3d45a228	0.048250347
90	0x3a717601	0.00092110044
91	0xb9c08701	-0.0003672168
92	0xbd4c3d34	-0.049863055
93	0x3c979bce	0.01850691
94	0x3ab322dd	0.0013667006
95	0x3d80795c	0.062731475
96	0xbccbb950	-0.024868637
97	0x3ca97ea9	0.02069028
98	0xbb200539	-0.0024417175
99	0x3d940037	0.072266035
100	0x3d5d6813	0.05405433
101	0x3d43703b	0.047714453
102	0x3c0c9358	0.008580051
103	0xbb97f09a	-0.0046368362
104	0x3cd1fa1e	0.02563196
105	0xbb0a8f56	-0.0021142564
106	0x3d62602b	0.055267494
107	0xbe1af272	-0.15131548
108	0x3cd45b21	0.02592236
109	0x3d1c0f7d	0.03810071
110	0x3d2b2c2c	0.041790172
111	0x3cc6c71e	0.024264868
112	0x3cd1b845	0.025600562
113	0x3cf9f618	0.030512854
114	0x3c419c90	0.011817113
115	0x3d9e6e76	0.077359125
116	0xbd201fec	-0.039092943
117	0x3d8a6b0b	0.06758698
118	0xbc348335	-0.01101761
119	0x3d16f952	0.036858864
120	0x3d36cc18	0.044628233
121	0xbc1657b0	-0.00917618
122	0x3d0b02b4	0.033938125
123	0x3c9e42c3	0.019318944
124	0x3d032a65	0.032022852
125	0x3cc57edd	0.024108345
126	0xbd2a4b0e	-0.041575484
127	0x3a26c024	0.00063610286
128	0xbc81dcc2	-0.015852336
129	0xbd19d614	-0.037557676
130	0xbcd710dd	-0.026253158
131	0x3cd5965e	0.026072677
132	0xbd7a97a4	-0.061179772
133	0x3d4c232b	0.049838226
134	0x3dba0189	0.09082324
135	0x3d0df913	0.034661364
136	0x3df8f31e	0.12155746
137	0xbc923543	-0.017847663
138	0xbc8f49db	-0.017491272
139	0x3d14b324	0.036303654
140	0x3bbb36dc	0.005713327
141	0x3d7919d6	0.060815655
142	0xbe0fa5ac	-0.14028043
143	0xbcba5f16	-0.022750419
144	0x3ce99268	0.028512195
145	0xbdbadeab	-0.09124502
146	0x3dcc030b	0.09961518
147	0x3d9c3f8e	0.076293096
148	0x3d01a530	0.031651676
149	0x3dc2bf39	0.09509129
150	0xbd9c2c50	-0.076256394
151	0x392a68e3	0.00016251537
152	0x3ce8b067	0.028404428
153	0xbb4925c8	-0.0030692685
154	0x3d7f0b12	0.062266417
155	0x3d1d1ca7	0.038357403
156	0xbd0e640a	-0.034763373
157	0x3d6d95ad	0.05800407
158	0x3d4076b4	0.046988204
159	0xbcc21b19	-0.023694562
160	0x3cec0cea	0.028814752
161	0x3d7a5fad	0.0611264
162	0x3a5cc0e1	0.0008421075
163	0xbc71507a	-0.01472866
164	0xbcae948e	-0.02131107
165	0xb981e60e	-0.00024776201
166	0xba2a7750	-0.00065027643
167	0x3c8b7eec	0.017028295
168	0x3ccf4698	0.025302216
169	0x3da45666	0.08024292
170	0x3d1efd44	0.03881575
171	0x3d3b357b	0.0457053
172	0x3c2e4504	0.010636572
173	0x3c807fb0	0.015685886
174	0xbbcd2617	-0.006260644
175	0xbd53188f	-0.051537093
176	0xbd06552b	-0.032796066
177	0x3d01eb74	0.031718686
178	0xbe261bbd	-0.16221519
179	0xbcc7138d	-0.024301315
180	0x3c804970	0.015660018
181	0xbd87c484	-0.06629279
182	0x3ccc7ec1	0.024962785
183	0x3bc0fe01	0.0058896546
184	0xbce52121	-0.027969899
185	0x3c9d690d	0.019215131
186	0x3de7c600	0.113170624
187	0x3bfe686d	0.0077639134
188	0x3c7ce766	0.015436029
189	0xbd11a194	-0.035554484
190	0x3d1b1912	0.037865706
191	0xbdd3b80f	-0.10337841
192	0x3b0580d9	0.0020370989
193	0x3da177ce	0.07884179
194	0x3d4548e5	0.04816522
195	0x3d08676a	0.03330175
196	0x3d556633	0.052099418
197	0xbdbac9bd	-0.0912051
198	0x3c7f7743	0.015592399
199	0x3df548a1	0.119767435
200	0x3ded9a30	0.116016746
201	0x3dbf13ae	0.093299255
202	0x3d4d2e3d	0.050092924
203	0x3d7961dd	0.060884345
204	0xbce16fa0	-0.027519047
205	0x3d140aab	0.036142986
206	0xbcb422f0	-0.021989316
207	0x3d7e0db7	0.0620248
208	0x3b84b01c	0.004049314
209	0xbba34e3e	-0.0049836924
210	0xbb556da8	-0.003256658
211	0x3d409f33	0.047026824
212	0xbd4ebc30	-0.05047244
213	0x3b8d8902	0.004319311
214	0xbd320bf1	-0.04346842
215	0xbcca4831	-0.024692627
216	0x3cd9e796	0.026599687
217	0x3c9d4f99	0.019202994
218	0xbc8b0501	-0.01697016
219	0xbd3a7260	-0.045519233
220	0x3ca6f588	0.02038075
221	0x3c916a1e	0.017750796
222	0x3d1b5df0	0.037931383
223	0x3cf3f308	0.029778972
224	0x3d8aac74	0.06771174
225	0xbdcb09fa	-0.09914012
226	0x3ba694a0	0.0050836354
227	0x3c91dc09	0.017805116
228	0x3c6f1bc1	0.014594019
229	0x3c765475	0.015034785
230	0x3d428931	0.047494117
231	0xbe16e037	-0.14733969
232	0xbce94f68	-0.028480247
233	0xbcce424f	-0.025178103
234	0xba866de0	-0.0010256134
235	0x3b73e5f1	0.0037215913
236	0x3be55828	0.0069990344
237	0x3cc0705d	0.023491079
238	0x3d02063d	0.03174423
239	0xbcbd70fa	-0.02312516
240	0xba7ba02d	-0.0009598758
241	0x3b55135a	0.0032512755
242	0xbdca8e66	-0.098904416
243	0x3c94dd23	0.018171852
244	0x3d9945c6	0.07484011
245	0xbdf46256	-0.119328186
246	0x3c98d2e9	0.018655257
247	0xbd525fb2	-0.051360793
248	0x3c637b1e	0.013884334
249	0xbdb17ac9	-0.086659975
250	0x3b2a6e0c	0.0026005534
251	0x38c5badd	9.428498e-05
252	0x3d55be86	0.05218365
253	0x3d1478dd	0.036248077
254	0x3cc4f1ed	0.02404114
255	0x3d3e18e9	0.046410475

fc2.bias f4 [128]
0	0x3dfcaf94	0.12338176
1	0x3c39750c	0.01131941
2	0x3d0e6770	0.034766614
3	0x3d83b376	0.06430714
4	0x3dc58256	0.09644
5	0xbd0bd6cf	-0.034140404
6	0x3c9e4e6c	0.019324504
7	0x3c7887a3	0.015169057
8	0xbd1ee6d1	-0.038794342
9	0x3d033987	0.032037284
10	0xbb311aa3	-0.0027023933
11	0x3d6987f0	0.057014406
12	0x3e5723ee	0.210098
13	0x3cbf1663	0.023326105
14	0xbd934945	-0.071917094
15	0xbdfaf185	-0.122530974
16	0xba317a69	-0.00067702547
17	0xbc6c1c63	-0.014411065
18	0x3d3890ff	0.045060154
19	0x3cc3ccfd	0.023901457
20	0x3c4b1031	0.012393997
21	0x3cae97d2	0.021312628
22	0xbd6ca9bf	-0.05777907
23	0xbd638717	-0.055548754
24	0x3df25f3a	0.11834569
25	0xbd816f06	-0.06320004
26	0x3c123fc8	0.008926339
27	0xbd521a56	-0.051294647
28	0x3d90e149	0.0707422
29	0xbdadd329	-0.08487541
30	0xbd4c3187	-0.04985192
31	0xbd2c0694	-0.04199846
32	0x3d0dec26	0.034649037
33	0xbe2f3511	-0.17110087
34	0x3db31796	0.08744733
35	0x3e070494	0.1318534
36	0xbc925f76	-0.017867785
37	0x3762f8ac	1.3528548e-05
38	0xbcae354e	-0.021265652
39	0xbcac8202	-0.021058086
40	0xbd3356fc	-0.043784127
41	0xbd0f113b	-0.03492854
42	0x3ca8f132	0.020622823
43	0x3d47b524	0.048756734
44	0xbdc90a5d	-0.0981643
45	0xbd64a990	-0.05582577
46	0x3d301efa	0.04299829
47	0xbd63be03	-0.05560113
48	0xbd81460b	-0.06312188
49	0xbd758bd0	-0.05994779
50	0xbbaf0aa1	-0.0053418432
51	0xbe1dbf2c	-0.15404958
52	0xbdb6ac3e	-0.08919571
53	0xbda16a55	-0.07881609
54	0xbd415897	-0.047203626
55	0x3da398cf	0.0798813
56	0x3dcf9cb4	0.101373106
57	0x3e0af145	0.135686
58	0xbd67cc73	-0.056591462
59	0xbc28df53	-0.010307151
60	0xbb8948b4	-0.004189575
61	0x3ca5f2ea	0.020257432
62	0xbc653368	-0.013989307
63	0x3ccc05e2	0.024905149
64	0x3d18a866	0.037269972
65	0xbcec9b99	-0.028882788
66	0xbe4d92b5	-0.20075496
67	0x3d6e487f	0.058174606
68	0x3c69a4c6	0.014260476
69	0xbc12945b	-0.0089465035
70	0x3d447f72	0.047973104
71	0xbe0d6a4e	-0.13810083
72	0xbb932d11	-0.0044914563
73	0x3d925eea	0.0714701
74	0xbc8ffa24	-0.017575331
75	0xbdde47e6	-0.10853557
76	0x3d52f890	0.05150658
77	0x3d3f9d3a	0.046780802
78	0x3bb30ed3	0.0054644137
79	0x3bb01e66	0.0053747175
80	0x3e9231c0	0.2855358
81	0x3c31973d	0.010839281
82	0xbd536456	-0.05160936
83	0x3d332987	0.043740775
84	0xbdba7d99	-0.09105987
85	0xbd5a1a1e	-0.053247564
86	0x3d1b3820	0.03789532
87	0x38fd9f43	0.00012093645
88	0x3d70799b	0.058709722
89	0xbe242307	-0.16028987
90	0x3dc0f2d6	0.09421317
91	0x3ced50a9	0.028969126
92	0x3da8a57c	0.08234689
93	0xbd107442	-0.035267122
94	0x3cc35711	0.023845227
95	0xbd085799	-0.033286665
96	0x3cca1f8e	0.02467325
97	0xbd9e2fb1	-0.0772394
98	0x3a90b4c7	0.0011040204
99	0x3d02c1bd	0.031923044
100	0xbaa5c95b	-0.001264851
101	0xbda6b9cf	-0.08140909
102	0x3dcb6913	0.09932151
103	0x3dc747ff	0.09730529
104	0xbd139217	-0.036027994
105	0xbc8f353a	-0.017481435
106	0x3c34fb2d	0.011046213
107	0x3d1bb9b9	0.038018916
108	0x3e3ebd53	0.18626909
109	0xbd229a39	-0.03969786
110	0xbe557618	-0.2084583
111	0xbcade5a7	-0.02122767
112	0xbd7e057d	-0.062016953
113	0x3dac0d3d	0.084009625
114	0xbd2d371a	-0.042288877
115	0xbd10dfd8	-0.035369724
116	0x3dac9984	0.08427718
117	0xbdee0863	-0.116226934
118	0x3b2d89f4	0.0026479932
119	0x3e8aadf7	0.2708585
120	0x3db88898	0.09010428
121	0x3dc7e2ed	0.097600795
122	0x3e17afcb	0.14813153
123	0x3d351eb5	0.044218738
124	0xbd8c3ec9	-0.06847913
125	0x3b6e0ceb	0.0036323618
126	0x3d7601c8	0.060060292
127	0x3c3a9345	0.011387651

bn2.weight f4 [128]
0	0x3fefaee7	1.8725251
1	0x400e78f6	2.2261329
2	0x40081539	2.1262953
3	0x4014b6ab	2.3236492
4	0x4012c98c	2.2935514
5	0x3fc71a85	1.5554968
6	0x400c7b4e	2.195026
7	0x400ee975	2.232999
8	0x400b4a52	2.1764112
9	0x400695e9	2.1028998
10	0x3feebf51	1.8652135
11	0x40138855	2.305196
12	0x3f8f6981	1.1204072
13	0x400d7c98	2.2107296
14	0x40114910	2.2700844
15	0x3fdcc1ed	1.7246681
16	0x400a0540	2.1565704
17	0x401ec27c	2.4806204
18	0x3fb7722a	1.4331715
19	0x3f791781	0.9730149
20	0x40058f08	2.086855
21	0x40163f30	2.3476067
22	0x3ff007ec	1.8752418
23	0x3f86a589	1.0519267
24	0x3f80a59a	1.0050538
25	0x4005d7bc	2.0912924
26	0x4010f3aa	2.264872
27	0x40125d86	2.2869582
28	0x400a1738	2.1576672
29	0x3fd6356d	1.6735054
30	0x400a9a5a	2.1656709
31	0x3fdd9467	1.7310914
32	0x4014415f	2.31649
33	0x3f729284	0.94754815
34	0x4004e995	2.0767567
35	0x400dfa89	2.2184165
36	0x3fb90070	1.4453259
37	0x4011a6e9	2.2758124
38	0x4000feab	2.0155437
39	0x40062faf	2.0966604
40	0x400c3e01	2.1912844
41	0x3f9834ed	1.1891152
42	0x401473cb	2.3195674
43	0x4018310c	2.3779936
44	0x4000432e	2.0041003
45	0x400ca856	2.1977744
46	0x400d9ad6	2.2125754
47	0x3fd168ef	1.6360148
48	0x400e2fc7	2.221666
49	0x3fd87ed8	1.691371
50	0x40109e92	2.2596784
51	0x3ff1f2bf	1.8902205
52	0x3ff38ba3	1.9026989
53	0x3f9d046c	1.2266974
54	0x3feb2ac3	1.8372425
55	0x40070bf9	2.1101058
56	0x3fe3b621	1.7789956
57	0x4020cc04	2.5124521
58	0x401278ed	2.2886307
59	0x402152c7	2.5206773
60	0x40166e02	2.3504643
61	0x4010dc0d	2.2634308
62	0x40092b9e	2.1432872
63	0x400c50d2	2.1924329
64	0x3fee230d	1.8604447
65	0x4006b153	2.104573
66	0x3fdabe6a	1.708936
67	0x400e907c	2.2275686
68	0x3ff6e0c8	1.9287348
69	0x400f46fd	2.2387078
70	0x3fe23357	1.7671918
71	0x3f7b0e5d	0.9806879
72	0x400b6d28	2.1785374
73	0x3fe9c37a	1.826278
74	0x4014d732	2.3256345
75	0x3fe0fb71	1.7576734
76	0x400964d3	2.1467788
77	0x4007daab	2.1227214
78	0x400f4a4a	2.2389092
79	0x4012d4de	2.2942424
80	0x3f9f7c91	1.245989
81	0x400f5477	2.2395303
82	0x400c0c1f	2.1882398
83	0x3fceccfb	1.6156305
84	0x3fe02464	1.7511106
85	0x3ff032ae	1.8765466
86	0x400dd3c9	2.2160513
87	0x400af959	2.171469
88	0x401e2ffc	2.4716787
89	0x3f7e3a01	0.99307257
90	0x3ffe6e60	1.9877434
91	0x3fea443e	1.8302076
92	0x4007b344	2.1203165
93	0x400e1053	2.2197464
94	0x400fe29e	2.2482066
95	0x400838e1	2.1284716
96	0x4001f55b	2.0306003
97	0x3fe67cc1	1.8006822
98	0x4008faac	2.1402998
99	0x400f5125	2.2393277
100	0x4016ee25	2.3582852
101	0x3f93b5df	1.1539878
102	0x4004853f	2.0706327
103	0x3fde74e1	1.7379419
104	0x4012d0d3	2.2939956
105	0x3fed1cf5	1.8524462
106	0x4014a043	2.3222816
107	0x3fec59a5	1.8464857
108	0x3faf5213	1.3696922
109	0x3fd3b3a1	1.6539193
110	0x3ffca446	1.9737632
111	0x400b8460	2.1799545
112	0x4019a56d	2.4007218
113	0x400bd721	2.1850054
114	0x400cd0c0	2.200241
115	0x40182163	2.3770378
116	0x4010bb45	2.26143
117	0x3fb99a36	1.4500186
118	0x400cb503	2.198548
119	0x3f94097c	1.1565394
120	0x3ff0f911	1.8826009
121	0x3ff2b32f	1.8960932
122	0x400375a4	2.0540552
123	0x4007ce97	2.1219842
124	0x3fd40bf7	1.6566151
125	0x3fd6c0aa	1.6777546
126	0x3fefa440	1.8722
127	0x400eb534	2.2298098

bn2.bias f4 [128]
0	0x3f05d866	0.5228332
1	0x3e628ea7	0.2212473
2	0x3eb5d2cf	0.35512397
3	0x3f09ef63	0.538809
4	0x3e2a4772	0.16628817
5	0x3b9fe61b	0.0048797256
6	0x3e5aec11	0.21379115
7	0x3f207ed5	0.6269353
8	0x3e8a6eb2	0.2703758
9	0x3e879271	0.26478913
10	0x3e2d689f	0.16934441
11	0x3f03dc53	0.51508063
12	0x3db01d0c	0.0859929
13	0x3e1a1d45	0.15050228
14	0x3efab4b7	0.48966
15	0x3c381670	0.011235818
16	0x3e89bb1e	0.26900572
17	0x3efa0de7	0.48838732
18	0xbbd2896f	-0.006425075
19	0xbe8515e4	-0.25993264
20	0x3ec9cea6	0.39415473
21	0x3e9a72d2	0.30165726
22	0x3e114323	0.14185767
23	0xbe88bc7d	-0.26706305
24	0x3d750194	0.05981596
25	0x3eb7cb09	0.3589709
26	0x3ec0c4b6	0.3765008
27	0x3eae5935	0.34052435
28	0x3e8a9c4b	0.27072367
29	0xbdd7778b	-0.10520848
30	0x3e42081c	0.18948406
31	0x3da66b74	0.08125964
32	0x3eee6d0c	0.4656757
33	0xbf23464e	-0.6377915
34	0x3e87be04	0.26512158
35	0xbd84d1c6	-0.064853236
36	0x3c57c588	0.013169654
37	0x3e379805	0.17929085
38	0x3e13cb9f	0.14433144
39	0x3e1a699f	0.15079354
40	0x3f44b0d9	0.7683235
41	0xbe87b6ff	-0.26506802
42	0x3f040778	0.51573896
43	0x3f281a21	0.6566487
44	0x3e23c896	0.15994486
45	0x3e868a45	0.26277366
46	0x3e668f02	0.2251549
47	0x3ce62aee	0.028096642
48	0x3ec91f32	0.39281613
49	0x3d6fbd25	0.05852999
50	0x3f0eaea9	0.5573526
51	0xbd3835b2	-0.044973083
52	0x3db8bcfd	0.09020422
53	0xbe278c9f	-0.16362236
54	0x3e3d851b	0.18507807
55	0x3e68d78c	0.22738475
56	0x3e25f442	0.16206458
57	0xbdc6468f	-0.09681427
58	0x3efa37c3	0.48870668
59	0x3f136dc9	0.57589394
60	0x3ed636b5	0.41838613
61	0x3ea4a47a	0.32156736
62	0x3f011887	0.5042805
63	0x3eb87f8c	0.3603481
64	0x3e1fc1cb	0.1560127
65	0x3eae4821	0.34039405
66	0xbd68056e	-0.056645803
67	0x3e6ef25b	0.23334639
68	0x3f1455ce	0.5794343
69	0x3e910738	0.2832582
70	0x3e226df0	0.1586225
71	0xbef0a830	-0.47003317
72	0x3f05ad01	0.5221711
73	0x3e9fa568	0.31180882
74	0x3e94b4ca	0.2904418
75	0xbd7cb65a	-0.06169734
76	0x3e3b993b	0.18320172
77	0x3eb6088f	0.35553405
78	0x3ea2035e	0.31643194
79	0x3f15c74a	0.58507216
80	0x3d7c632d	0.06161802
81	0x3f0f2308	0.5591283
82	0x3eb84428	0.359895
83	0x3dc8d840	0.098068714
84	0xbaf6e5ca	-0.0018836793
85	0x3d201eea	0.039091982
86	0x3e8cab35	0.2747437
87	0x3efa24f5	0.4885632
88	0x3dba750f	0.091043584
89	0xbf172acb	-0.5904967
90	0x3e94921d	0.29017726
91	0x3e53aee5	0.20672186
92	0x3e9a54ea	0.3014291
93	0x3eb38b73	0.3506733
94	0x3ea998bf	0.3312435
95	0x3edda3f8	0.4328916
96	0x3eb459ef	0.35224864
97	0xbd192e47	-0.03739765
98	0x3e41727e	0.18891332
99	0x3ea0099e	0.31257337
100	0x3eae1cd7	0.34006378
101	0xbeb42794	-0.35186446
102	0x3e8462f1	0.25856736
103	0x3f0ecaf6	0.55778444
104	0x3e879941	0.2648411
105	0x3e28433c	0.16431898
106	0x3e8d5c5a	0.2760952
107	0x3dbbe88f	0.091752164
108	0xbe03d64c	-0.12874717
109	0x3cafdc59	0.021467375
110	0xbd71349a	-0.058888055
111	0x3e7a3608	0.24434674
112	0x3f208768	0.62706614
113	0x3e9f6fab	0.31139883
114	0x3f012f00	0.5046234
115	0x3f1bff5a	0.6093651
116	0x3f03db78	0.5150676
117	0xbeb8a03d	-0.36059752
118	0x3f0d8101	0.5527497
119	0xbd413316	-0.04716786
120	0x3e9628ff	0.29328153
121	0x3eb51ce0	0.35373592
122	0x3e26fc60	0.16307211
123	0x3f038e68	0.5138917
124	0xbccbd6c5	-0.024882684
125	0x3e21fe46	0.15819654
126	0x3eb01a23	0.3439494
127	0x3e8a651e	0.2703027

fc3.weight f4 [24, 128]
0	0x3e01e34e	0.12684366
1	0x3cd69f48	0.026198998
2	0x3ccbd41a	0.024881411
3	0x3ebeac61	0.3724089
4	0xbf3e6cf4	-0.74385
5	0x3e66ebdc	0.2255091
6	0x3e32c4c2	0.1745787
7	0x3eaebfb3	0.3413063
8	0x3e7991c2	0.24372008
9	0x3b21bca9	0.00246791
10	0xbe962ce9	-0.2933114
11	0x3e65687c	0.22403139
12	0x3d5179a8	0.05114141
13	0x3edd8874	0.43268168
14	0x3e9401a0	0.2890749
15	0xbdd7f45e	-0.10544656
16	0x3df4f91d	0.11961577
17	0x3f3efde6	0.7460617
18	0x3de1abc8	0.11019093
19	0x3d57cfaf	0.052688297
20	0x3e8012cf	0.2501435
21	0x3ed3e5d7	0.4138629
22	0x3e4882af	0.19581102
23	0x3d41bf2e	0.047301464
24	0x3d47c08f	0.048767623
25	0x3e0dcc58	0.13847482
26	0x3e799986	0.24374971
27	0x3e8dd335	0.277002
28	0x3e37f07f	0.17962836
29	0xbcad28fa	-0.021137703
30	0x3e3a4246	0.18189344
31	0xbdb9b430	-0.09067571
32	0x3f24895a	0.6427208
33	0x3d125d84	0.035733715
34	0x3dc2ed69	0.09517939
35	0xbf206652	-0.6265613
36	0xbd041097	-0.032242384
37	0xbd8b22be	-0.06793736
38	0xbc73df56	-0.01488479
39	0xbe8fa57d	-0.28055945
40	0x3ec129d5	0.37727228
41	0xbae8f3bb	-0.0017772833
42	0x3e22b624	0.15889794
43	0x3e95466f	0.291553
44	0x3e097f7b	0.13427536
45	0x3db24a81	0.08705617
46	0x3e7976a0	0.24361658
47	0xbe782acb	-0.24235074
48	0x3e072849	0.13198961
49	0xbd730001	-0.059326176
50	0x3e7936c8	0.24337304
51	0xbb4aad17	-0.0030925923
52	0xbe170520	-0.14748049
53	0xbbfd9f22	-0.0077399174
54	0xbeb8d633	-0.3610092
55	0xbe84a2c4	-0.2590543
56	0xbe5ce9e6	-0.215736
57	0xbee90094	-0.45508254
58	0x3eeb20c3	0.45923433
59	0x3edbe8c7	0.42951033
60	0x3eeed0a8	0.46643567
61	0x3ea6c37f	0.32571027
62	0x3e938b36	0.28817147
63	0x3e998c77	0.2998998
64	0x3edad9e9	0.42744377
65	0x3edb16eb	0.42790923
66	0xbe0d533c	-0.13801283
67	0xbe2d9925	-0.16952951
68	0x3e3a2584	0.18178374
69	0x3e8562f0	0.26052046
70	0x3ea18a19	0.31550673
71	0x3d93c98c	0.072161764
72	0x3e8979dd	0.26850787
73	0x3db8d3ed	0.09024797
74	0x3f13646c	0.57575107
75	0xbc5ea9de	-0.013590304
76	0x3ebbfd88	0.36716866
77	0x3ed9b783	0.4252282
78	0x3d1b2399	0.037875745
79	0x3ead34a2	0.33829218
80	0xbd722379	-0.05911586
81	0x3e85538a	0.26040298
82	0x3d945ae7	0.07243901
83	0x3d3016b7	0.042990413
84	0xbdd08578	-0.10181707
85	0x3da7cd3f	0.081934445
86	0x3d863612	0.06553282
87	0x3f00c627	0.50302356
88	0xbec418cd	-0.38300171
89	0x3acb5b29	0.0015514839
90	0x3deb5d3b	0.11492392
91	0x3e6c3de8	0.2307049
92	0x3e8367f7	0.25665256
93	0x3ec514ff	0.3849258
94	0x3e42f01e	0.1903691
95	0x3e96564e	0.2936272
96	0x3e8f7a3c	0.28022945
97	0xbd094190	-0.03350979
98	0x3dc8b2b7	0.09799712
99	0x3e77d25d	0.24201341
100	0x3eb16061	0.34643844
101	0x3ddfd0b4	0.10928479
102	0x3da0be4c	0.07848796
103	0x3e0b8351	0.13624312
104	0x3e431af3	0.19053249
105	0x3d69980d	0.057029773
106	0x3e8166f6	0.25273865
107	0x3e424391	0.18971087
108	0xb97617eb	-0.00023469298
109	0x3ce2858d	0.027651573
110	0xbe88254a	-0.2659095
111	0x3e0aacc9	0.13542475
112	0x3e7e3668	0.24825442
113	0x3dc9ae3b	0.09847685
114	0x3e2ccaca	0.16874233
115	0x3e73d8a8	0.23813117
116	0x3e556a8f	0.2084143
117	0xbe3d9c83	-0.18516736
118	0x3ea95028	0.33068967
119	0xbbf83839	-0.0075750616
120	0x3cbe339f	0.023217974
121	0x3e3c2876	0.1837481
122	0x3e59367c	0.2121219
123	0x3e8e3579	0.2777517
124	0xbb3916df	-0.0028242392
125	0xbe5da2af	-0.2164409
126	0x3e52638b	0.20545785
127	0x3e807cba	0.2509516
128	0x3e1b83e8	0.15187037
129	0x3e245417	0.16047703
130	0xbd3c827f	-0.04602289
131	0x3e8b1ae8	0.27168965
132	0x3d29479e	0.041328065
133	0xbd315ece	-0.043303303
134	0x3e26b422	0.16279653
135	0x3e7e2bd3	0.24821405
136	0x3dab7aff	0.08373069
137	0x3e160a18	0.14652288
138	0x3d29cd54	0.04145558
139	0x3eb72d45	0.35776725
140	0xbdbe5816	-0.09294145
141	0xbd776b0f	-0.060404833
142	0x3f2659c3	0.64980716
143	0xbd13ab8f	-0.036052283
144	0xbda1e20a	-0.07904442
145	0x3e4ea9c9	0.20181955
146	0x3c29fdf2	0.010375487
147	0x3a313066	0.0006759226
148	0x3e3433d5	0.17597897
149	0x3ede8389	0.43459728
150	0x3dfcb6d0	0.12339556
151	0x3d2ec45d	0.042667735
152	0x3d266f43	0.04063345
153	0x3e48639b	0.19569246
154	0x3de7a0b8	0.113099515
155	0x3cde24f6	0.027117234
156	0x3e2aa372	0.16663912
157	0x3d67f612	0.056631155
158	0xbba9eb13	-0.0051854937
159	0x3e1eb36e	0.15498134
160	0x3e879c0b	0.2648624
161	0x3d799e6a	0.06094209
162	0x3ddb0342	0.10693981
163	0xbecf8b16	-0.40535802
164	0x3e275624	0.16341454
165	0xbe1445b7	-0.14479719
166	0x3ea926d9	0.3303745
167	0x3edd2132	0.4318939
168	0x3ea3563d	0.31901732
169	0x3daa85ad	0.08326278
170	0x3e9a281f	0.30108735
171	0x3e935564	0.28776085
172	0xbdafa6d2	-0.0857674
173	0x3e5726f6	0.21010956
174	0x3e115c73	0.14195423
175	0xbdbc0ccb	-0.091821276
176	0x3e012fdf	0.12615918
177	0x3db3b026	0.08773832
178	0x3eadb7ec	0.33929384
179	0xbdf219f6	-0.11821358
180	0xbe30e6e0	-0.17275572
181	0x3d3fab1a	0.046794035
182	0x3ed20b12	0.4102407
183	0xbd02fec7	-0.031981256
184	0xbe08ac0e	-0.13346884
185	0xbe13224b	-0.1436855
186	0x3eeda523	0.46415052
187	0x3f1a8d9d	0.60372335
188	0x3e9fb3cb	0.3119186
189	0x3e8d9a68	0.27656865
190	0x3ebd0892	0.369206
191	0x3e3e345d	0.18574663
192	0xbb416293	-0.0029508218
193	0x3e6ce69c	0.23134845
194	0xbdf8b63f	-0.12144136
195	0x3ec8b4a4	0.39200318
196	0x3e30990c	0.17245883
197	0x3df47752	0.11936821
198	0x3db3b56a	0.08774836
199	0x3d94ded0	0.072690606
200	0x3e7292f2	0.23688868
201	0x3c422927	0.011850632
202	0x3f2e1f57	0.6801657
203	0x3deb9130	0.11502302
204	0xbee52873	-0.44757423
205	0x3f10f843	0.5662882
206	0x3e957615	0.29191652
207	0x3e972dd9	0.29527166
208	0x3d93815d	0.072024085
209	0x3eb1fc91	0.34763005
210	0xbe30ada3	-0.17253737
211	0x3dc0e87f	0.09419345
212	0x3e42c293	0.19019537
213	0xbcd4fb7d	-0.025998825
214	0x3d95ee88	0.07320887
215	0x3e243dc1	0.16039182
216	0xbdcda33d	-0.10040901
217	0x3dc392bf	0.09549474
218	0x3ea07c01	0.31344607
219	0x3e0bd33b	0.13654797
220	0x3e8fe60b	0.28105196
221	0x3ec7778d	0.38958398
222	0x3d455bef	0.048183378
223	0x3e399b06	0.18125543
224	0x3dfa98ef	0.12236201
225	0xbea160d1	-0.31519178
226	0x3e50ef50	0.2040379
227	0x3e834c45	0.25644127
228	0x3e5442df	0.20728634
229	0x3cffa06b	0.031204423
230	0x3e4171b6	0.18891034
231	0x3e23e20f	0.16004203
232	0x3ee77ace	0.4521088
233	0x3e1e2059	0.15442027
234	0x3d2048b8	0.03913185
235	0xbdace0a8	-0.08441287
236	0xbd11a879	-0.03556106
237	0xbe8238a3	-0.25433835
238	0xbe3a2af8	-0.18180454
239	0x3eb08172	0.3447376
240	0x3efffd27	0.49997827
241	0x3e93d91f	0.28876588
242	0x3eb00384	0.34377682
243	0x3e660946	0.22464475
244	0x3f198d2f	0.59981054
245	0xbdc20e08	-0.094753325
246	0x3ebabda5	0.36472812
247	0xbcbd247e	-0.02308869
248	0x3d232d39	0.03983805
249	0x3daf21c5	0.08551363
250	0x3e444fbe	0.19171044
251	0x3e8a2fac	0.26989496
252	0xbe2265d1	-0.15859152
253	0x3d82a7ec	0.06379685
254	0x3e208613	0.15676145
255	0x3f2c7592	0.673669

fc3.bias f4 [24]
0	0x3eb8b3b5	0.36074606
1	0x3ebfb914	0.3744589
2	0x3e929b9f	0.28634354
3	0x3eeacde5	0.4586021
4	0x3ef183fd	0.47171012
5	0x3ec48576	0.38383073
6	0x3edda0f8	0.43286872
7	0x3ed2c7ec	0.41168153
8	0x3f0311a1	0.51198775
9	0x3ea93316	0.33046788
10	0x3eb3eb7e	0.35140604
11	0x3ec87ed1	0.39159253
12	0x3ebb16ca	0.36540824
13	0x3eb023ca	0.34402305
14	0x3ecb82ff	0.3974838
15	0x3ea41ea2	0.3205462
16	0x3ef82738	0.48467422
17	0x3ebbe03d	0.36694518
18	0x3f0405d3	0.5157139
19	0x3ec0369e	0.3754167
20	0x3eb1c10a	0.3471759
21	0x3ec5a406	0.38601702
22	0x3eef580d	0.46746865
23	0x3e9fdad2	0.31221634
