dqn_model.pt (torch, 96980 bytes, 10 tensors)

fc1.weight f4 [128, 24]
0	0xbbb18a6c	-0.0054181125
1	0x3df7ceef	0.12100016
2	0xbde16771	-0.11006058
3	0x3d9fee1b	0.07809087
4	0xbd1d2fff	-0.03837585
5	0x3dc1da58	0.09465474
6	0x3dabda41	0.08391238
7	0xbdec30da	-0.11532755
8	0x3dcc33b9	0.09970803
9	0xbd282682	-0.04105235
10	0xbca3854a	-0.019961018
11	0x3d72bcfd	0.059262265
12	0xbdb08dd6	-0.08620803
13	0x3d0b6e1d	0.03404056
14	0x3e3c77a5	0.18405016
15	0x3df8e6ca	0.121533945
16	0x3e1ab4ff	0.15108107
17	0xbe3b2fb8	-0.18279922
18	0x3cc0cca4	0.02353508
19	0xbd7f1dfa	-0.062284447
20	0x3d86ecb5	0.06588117
21	0xbe370292	-0.17872074
22	0x3d14c9a6	0.03632512
23	0xbd86af08	-0.06576353
24	0x3de01516	0.10941522
25	0x3e27f56f	0.16402219
26	0x3da44394	0.08020702
27	0xbd448afd	-0.047984112
28	0xbdde262f	-0.10847127
29	0x3c32f9fc	0.010923859
30	0x3dc9dc4a	0.0985647
31	0x3d1da87d	0.03849076
32	0xbd8fedfc	-0.07027814
33	0x3d6f0838	0.058357447
34	0x3e76fbab	0.24119441
35	0x3e1de8aa	0.15420786
36	0x3e354869	0.17703404
37	0xbdaa2d11	-0.08309377
38	0x3e269fe0	0.16271925
39	0xbe135033	-0.14386062
40	0xbda23e2c	-0.079220146
41	0xbe6327ca	-0.22183147
42	0x3d1bb5c0	0.038015127
43	0xbdacac21	-0.084312685
44	0xbdab0d0a	-0.083520964
45	0x3e2976ee	0.16549274
46	0xbdfb9e77	-0.12286084
47	0xbdb449c1	-0.0880313
48	0x3dd0b0c6	0.10189967
49	0xbc5be590	-0.013421431
50	0x3df1f874	0.11814967
51	0xbdc9397a	-0.09825416
52	0xbde792ea	-0.113073185
53	0xbcdb8200	-0.026795387
54	0xb98cf1aa	-0.00026882935
55	0x3da4efe4	0.08053568
56	0x3e0ac26b	0.13550727
57	0x3e112055	0.1417249
58	0x3e78746d	0.24263163
59	0xbdfa24b2	-0.1221403
60	0xbdcbfe05	-0.0996056
61	0xbd1db352	-0.03850109
62	0xbdf4462d	-0.119274475
63	0xbe119f8c	-0.14221019
64	0x3e086ee3	0.1332355
65	0x3d6bcc41	0.05756784
66	0x3dd5ac50	0.104332566
67	0xbdcd0008	-0.100097716
68	0xbde8b14d	-0.113619424
69	0x3e526621	0.20546772
70	0x3db505d3	0.088390015
71	0x3c92ffe1	0.017944278
72	0x3db93806	0.09043889
73	0xbdb55d19	-0.088556476
74	0x3dfe7a28	0.12425643
75	0xbe315804	-0.17318732
76	0x3e492991	0.19644763
77	0x3e079ade	0.13242671
78	0xbe297510	-0.16548562
79	0xbd26b08f	-0.040695723
80	0x3d9a8dff	0.07546615
81	0x3cfe219b	0.031021884
82	0x3e180c44	0.14848429
83	0x3e13c40f	0.14430259
84	0xbd0f5947	-0.03499725
85	0xbe16aaf1	-0.14713646
86	0x3e698b39	0.22807015
87	0xbdf4eea6	-0.11959581
88	0xbe051b19	-0.12998618
89	0xbd860b63	-0.065451406
90	0xbd0959cf	-0.033532914
91	0x3e4f779f	0.20260476
92	0xbe1472ed	-0.14496966
93	0x3da457c8	0.080245554
94	0x3e28a1bd	0.16467948
95	0xbdeda0e5	-0.11602954
96	0x3d8a543b	0.06754347
97	0xbdbe9842	-0.093063846
98	0xbd57c188	-0.0526748
99	0x3df9a30e	0.12189303
100	0x3cfbec6c	0.030752383
101	0x3cdc4495	0.026888171
102	0x3cb0c642	0.021578912
103	0xbcdef5a0	-0.027216733
104	0x3c471fff	0.012153625
105	0xbd37e55e	-0.044896476
106	0xbe00fd40	-0.12596607
107	0xbc6fe372	-0.0146416295
108	0xbd53c2ec	-0.051699564
109	0x3e1053fe	0.1409454
110	0x3e72774d	0.23678322
111	0x3dfe2cc7	0.12410884
112	0xbdfa9aa8	-0.122365296
113	0xbdbf06cd	-0.09327469
114	0x3e1475ae	0.14498016
115	0x3d0d29a1	0.03446353
116	0xbd178546	-0.036992334
117	0x3e19633c	0.14979261
118	0xb9fec69d	-0.00048594634
119	0x3dfcc008	0.123413146
120	0xbd457374	-0.048205808
121	0x3cfc94e6	0.030832719
122	0x3d50add3	0.05094702
123	0xbd348ced	-0.04407971
124	0xbe072a91	-0.13199832
125	0x3e469645	0.19393261
126	0xba41ad9c	-0.00073882355
127	0x3d4016b5	0.046896655
128	0xbc9661d9	-0.018357204
129	0xbd98e0cc	-0.074647516
130	0xbd0a3b0b	-0.033747714
131	0xbdd9aa90	-0.10628235
132	0x3b90f6bd	0.0044239447
133	0x3d74a67a	0.059729077
134	0x3de2ece2	0.11080338
135	0xbdcc755b	-0.09983321
136	0xbe17ad78	-0.14812267
137	0xbbd367f8	-0.006451603
138	0x3e6a54ba	0.22883883
139	0xbd2a1564	-0.041524306
140	0x3e15e627	0.14638577
141	0x3e721b80	0.23643303
142	0xbdac0532	-0.083994284
143	0x3e4598e1	0.192966
144	0x3e084f81	0.13311578
145	0x3bfec967	0.007775474
146	0x3d4ab077	0.049484696
147	0x3ce75afa	0.028241623
148	0x3e082f4e	0.13299295
149	0x3dbde539	0.092722364
150	0x3d317c06	0.04333117
151	0xba82ab20	-0.0009969212
152	0xbe9ec276	-0.31007737
153	0xbd79587c	-0.0608754
154	0xbdde144e	-0.108437166
155	0x3e1a721b	0.1508259
156	0xbd1441b8	-0.036195487
157	0xbdab028b	-0.083500944
158	0xbdbe66ad	-0.092969276
159	0xbdf5315d	-0.11972306
160	0x3e0b4eb9	0.13604249
161	0xbdb80b55	-0.089865364
162	0x3c9b1303	0.018929964
163	0x3e4351a7	0.19074117
164	0x3d85b92c	0.06529459
165	0x3d1389d7	0.036020126
166	0xbdc725f8	-0.09724039
167	0x3e603f86	0.21899232
168	0x3deec2b8	0.116582334
169	0x3cb4e5dd	0.022082264
170	0xbd886f88	-0.06661898
171	0x3d7ede59	0.062223766
172	0xbdbcefad	-0.09225402
173	0x3d1945cc	0.03742008
174	0x3d9a7b2a	0.07543023
175	0x3e11ce84	0.14238936
176	0x3cb7b423	0.022424763
177	0xbcace04f	-0.021103052
178	0x3db7cba8	0.08974391
179	0x3e221332	0.15827635
180	0x3c64c4c8	0.013962932
181	0xbdd17994	-0.10228267
182	0x3e16c429	0.14723267
183	0xbd9bc6dd	-0.076062895
184	0x3e02ce08	0.12773907
185	0xbd1bb097	-0.038010206
186	0x3e46b4a9	0.19404854
187	0x3e1dccce	0.15410158
188	0x3dc0cc62	0.09413983
189	0xbc065ac5	-0.008200352
190	0x3e3742f4	0.17896634
191	0x3df635d6	0.12021987
192	0x3c61982c	0.013769191
193	0x3c807b7d	0.015683884
194	0xbcab2d6e	-0.020895686
195	0xbdc96772	-0.09834184
196	0xbde45f1b	-0.111509524
197	0x3c4741cb	0.012161682
198	0xbdc4906b	-0.09597858
199	0x3e4f6538	0.20253456
200	0xbd1d4643	-0.038397085
201	0x3d902d30	0.07039869
202	0x3db915e7	0.09037381
203	0xbbf4706c	-0.007459691
204	0xbdab7528	-0.08371955
205	0x3d98d4e8	0.07462484
206	0xbd64f541	-0.055897955
207	0xbcb97f12	-0.0226436
208	0x3e2cea8a	0.16886345
209	0xbcfad548	-0.030619279
210	0x3ccb4ef5	0.024817923
211	0xbd28a532	-0.041173168
212	0x3e10cd69	0.14140858
213	0xbe2510c5	-0.16119678
214	0xbdee76a1	-0.116437204
215	0x3d8bcefc	0.068265885
216	0x3d912840	0.07087755
217	0x3da3c9fe	0.07997511
218	0x3c8ba114	0.017044581
219	0x3cfa3ae2	0.030545656
220	0x3e26c0da	0.16284505
221	0x3dda0500	0.10645485
222	0x3e182e60	0.1486144
223	0x3c51da47	0.012808389
224	0x3e3eaa08	0.1861955
225	0x3e32565f	0.1741576
226	0x3dfc179e	0.12309192
227	0xbd21b1e8	-0.039476305
228	0xbb0d103b	-0.0021524567
229	0x3b525289	0.0032092652
230	0x3d474522	0.048649915
231	0xbcb5954d	-0.022165919
232	0x3e207a36	0.1567162
233	0x3d60279a	0.054725267
234	0x3d95e639	0.07319302
235	0x3e009a65	0.12558897
236	0xbd612aa1	-0.054972295
237	0x3d1abc00	0.037776947
238	0x3e287348	0.16450226
239	0x3e0a4b17	0.13505207
240	0x3dc6a7b0	0.096999526
241	0x3dc04cf8	0.093896806
242	0xbd2f1531	-0.04274482
243	0x3e3a4669	0.18190922
244	0x3de29d1b	0.11065122
245	0x3df9d6b7	0.12199157
246	0x3e1adfb2	0.15124395
247	0xbdb985b9	-0.09058709
248	0x3cfcf63e	0.030879136
249	0xbc4eb332	-0.012615966
250	0x3e0f81b9	0.14014329
251	0x3dfeae08	0.124355376
252	0x3e26bf22	0.16283849
253	0x3dcec964	0.10097006
254	0x3dcc4112	0.09973349
255	0xbd27848e	-0.0408979

fc1.bias f4 [128]
0	0x3e401cf0	0.18761039
1	0x3c37237a	0.011177892
2	0xbdc75497	-0.09732931
3	0xbc1d5dbd	-0.0096048685
4	0xbe0225fd	-0.12709804
5	0xbd43a297	-0.04776248
6	0x3e278f47	0.1636325
7	0xbe72a35a	-0.23695126
8	0x3ea53480	0.32266617
9	0xbe1c3336	-0.1525391
10	0xbe95b160	-0.2923689
11	0xbcd4f4a7	-0.025995566
12	0xbdb7e759	-0.08979673
13	0xbe8c0a43	-0.2735158
14	0x3e5e14e4	0.21687657
15	0xbd0a4136	-0.033753596
16	0xbe38f288	-0.18061268
17	0xbe1834c2	-0.14863876
18	0x3bb1fb5f	0.005431577
19	0x3eec4825	0.46148792
20	0x3dce8d93	0.10085597
21	0xbe4016ca	-0.18758693
22	0xbc872385	-0.01649643
23	0x3eec33d4	0.46133292
24	0x3e0171c9	0.12641062
25	0xbdc5defb	-0.09661671
26	0x3e52b905	0.20578392
27	0xbd95704a	-0.07296808
28	0xbc6a78bf	-0.014311015
29	0x3e168885	0.14700516
30	0xbe8cc234	-0.27491915
31	0xbeba352f	-0.363687
32	0x3e2033fc	0.1564483
33	0x3e0a43ea	0.1350247
34	0x3dd47c78	0.10375303
35	0xbe9e0967	-0.30866548
36	0x3dbf1b23	0.09331348
37	0x3eadb3fb	0.33926377
38	0x3e981542	0.29703718
39	0xbe169d13	-0.14708357
40	0xbd117115	-0.035508234
41	0xbe4b74de	-0.198688
42	0x3e574545	0.21022518
43	0xbeb9f7d2	-0.36321884
44	0xbe180949	-0.14847292
45	0x3e93140c	0.28726232
46	0xbe1f793d	-0.15573592
47	0xbd9e1866	-0.077194974
48	0xbe75e91a	-0.24014702
49	0x3eb36de6	0.35044783
50	0xbe91b108	-0.28455377
51	0x3dea4c90	0.114403844
52	0x3dd962e0	0.10614562
53	0xbe2d88f4	-0.16946775
54	0xbdeb2cef	-0.1148318
55	0xbe8bb7a9	-0.2728856
56	0x3ad706ae	0.0016405189
57	0x3e6373b2	0.22212103
58	0x3f010c73	0.5040962
59	0xbe17aa4b	-0.14811055
60	0xbdd90cc9	-0.10598142
61	0x3cf2647f	0.029588936
62	0xbcf917c9	-0.03040685
63	0x3db5d172	0.08877839
64	0xbe172b46	-0.14762601
65	0x3ebcd1b2	0.36878735
66	0x3e866855	0.26251474
67	0xbcf5a636	-0.029986482
68	0xbdfa0a3a	-0.12208982
69	0x3d0649c8	0.032785207
70	0x3d4e3290	0.05034119
71	0xbe57896e	-0.21048519
72	0xb9a0838d	-0.0003061559
73	0xbd9e6b9c	-0.077353686
74	0xbe608dd7	-0.21929108
75	0xbe3a2f16	-0.18182024
76	0xbd6a9a64	-0.057276145
77	0x3e3f68af	0.18692277
78	0x3e532389	0.20619024
79	0xbe9f167e	-0.31071848
80	0x3df97b34	0.12181702
81	0xbd9c05c5	-0.07618288
82	0xbe3a852a	-0.1821486
83	0xbd52edc4	-0.051496282
84	0xbda484aa	-0.08033116
85	0xbe762b76	-0.24040017
86	0xbdbe26cc	-0.09284744
87	0xbc19808a	-0.009369025
88	0xbe40e71c	-0.18838161
89	0xbdf60ae6	-0.120137975
90	0x3abf0b8b	0.0014575584
91	0x3e1fa611	0.15590693
92	0xbea0b038	-0.31384444
93	0x3ca6d191	0.0203636
94	0x3e341ee2	0.17589906
95	0x3d8f3861	0.06993175
96	0x3f030247	0.5117535
97	0x3e9bdca9	0.30441788
98	0xbe69c294	-0.22828132
99	0xbe8a6220	-0.27027988
100	0x3ea05cb3	0.31320724
101	0x3f07b4a6	0.5301002
102	0xbe88aa71	-0.26692536
103	0xbdbe0821	-0.09278894
104	0xbe5cf11b	-0.2157635
105	0xbd6d3de0	-0.057920337
106	0x3efa9bfd	0.48947135
107	0xbd1cf07b	-0.038315278
108	0x3d4d18f0	0.05007261
109	0x3e55b249	0.20868792
110	0xbe11e513	-0.14247541
111	0x3f04d33b	0.5188481
112	0xbd55d5fa	-0.052206017
113	0x3ee9fa9e	0.45699018
114	0x3d8fdeb5	0.070249
115	0xbe80c5ea	-0.25150996
116	0xbec381b8	-0.38184905
117	0xbcfebff3	-0.031097388
118	0xbd84a0ec	-0.06476006
119	0xbe84fdeb	-0.25974974
120	0x3c48a3d7	0.012246094
121	0xbe0a79e8	-0.13523066
122	0xbe6fa68f	-0.23403381
123	0x3eaa69c9	0.33283833
124	0x3d3f58fe	0.04671573
125	0xbeb67f76	-0.3564412
126	0xbe7fea36	-0.24991688
127	0xbd7b0f15	-0.06129368

bn1.weight f4 [128]
0	0x3f75d828	0.96032953
1	0x3f87ff92	1.0624869
2	0x3f89efa4	1.0776258
3	0x3f7c7ed5	0.9863103
4	0x3f88d776	1.0690753
5	0x3f8a5a70	1.0808849
6	0x3f808225	1.0039717
7	0x3f467d4d	0.77534944
8	0x3f922975	1.1418902
9	0x3f192e72	0.59836495
10	0x3f3caf56	0.7370504
11	0x3f8c0a93	1.0940727
12	0x3f51f471	0.82013613
13	0x3f4bcd05	0.7960971
14	0x3f93ce7f	1.1547393
15	0x3f8e3348	1.11094
16	0x3f4e8547	0.80672115
17	0x3f6d0769	0.9258943
18	0x3f90fe22	1.1327555
19	0x3fb9194e	1.4460847
20	0x3f9b542e	1.2135065
21	0x3f856e8b	1.042436
22	0x3f8027e0	1.0012169
23	0x4014305e	2.315452
24	0x3f903703	1.1266788
25	0x3f89350e	1.0719316
26	0x3f8be797	1.0930051
27	0x3f869eb7	1.0517186
28	0x3f8a7458	1.0816755
29	0x3f86871c	1.0509982
30	0x3f54d073	0.8313057
31	0x3f5ff68b	0.8748557
32	0x3f82e3e0	1.0225792
33	0x3f94bfe7	1.1621064
34	0x3f971420	1.1803017
35	0x3f2cb5f3	0.6746513
36	0x3f9f1005	1.2426764
37	0x3f8e0a3f	1.1096877
38	0x3f86db2b	1.0535635
39	0x3f849c95	1.0360285
40	0x3f7c5491	0.9856654
41	0x3f605f43	0.8764536
42	0x3f90ec29	1.132207
43	0x3f2decfa	0.6793972
44	0x3f892cfc	1.0716853
45	0x3f8e39f0	1.1111431
46	0x3f8bbd2b	1.0917104
47	0x3f8df726	1.1091049
48	0x3f496d3c	0.78682303
49	0x3f8c9d8b	1.0985578
50	0x3f37fe23	0.71872157
51	0x3f73370b	0.95005864
52	0x3f8ab029	1.083501
53	0x3f9c9e79	1.2235862
54	0x3f8250ea	1.0180943
55	0x3f265b34	0.64982915
56	0x3f827a96	1.019366
57	0x3f839469	1.0279666
58	0x3fa195b6	1.2623813
59	0x3f332684	0.69980645
60	0x3f4776e1	0.7791577
61	0x3f8a1bf4	1.0789781
62	0x3f857c7b	1.0428613
63	0x3f8b12a2	1.0865061
64	0x3f87f17e	1.0620573
65	0x3f87527a	1.0572045
66	0x3f8b3729	1.0876209
67	0x3f97598c	1.1824203
68	0x3f4987e0	0.78722954
69	0x3f81b2b2	1.0132658
70	0x3f8bc4ea	1.0919468
71	0x3f793851	0.97351557
72	0x3f5875f2	0.8455497
73	0x3f96384c	1.173593
74	0x3f6908e7	0.9102921
75	0x3f6605bf	0.8985252
76	0x3f8fcb41	1.1233903
77	0x3f7aa0c7	0.97901577
78	0x3f90bc83	1.1307529
79	0x3f2ab864	0.6668761
80	0x3f747ea5	0.95505744
81	0x3f785bcc	0.9701507
82	0x3f8dec9c	1.1087832
83	0x3f82ccc0	1.0218735
84	0x3f8d854a	1.1056302
85	0x3f3261f5	0.6968072
86	0x3f801e46	1.0009239
87	0x3f8d5fea	1.1044896
88	0x3f410fe1	0.75414854
89	0x3f889a32	1.0672057
90	0x3f7ae2c2	0.98002255
91	0x3f869a89	1.051591
92	0x3f3498c5	0.7054561
93	0x3f9d24cd	1.2276856
94	0x3f80ea91	1.0071584
95	0x3f6f3cbf	0.93452066
96	0x3fb3c90b	1.4045728
97	0x3f71b81d	0.9442156
98	0x3f4a5cf1	0.7904807
99	0x3f2570f1	0.6462546
100	0x3f964b37	1.1741704
101	0x3fbbfcd4	1.4686532
102	0x3f82ee34	1.0228944
103	0x3f83667a	1.0265648
104	0x3f3f587e	0.74744403
105	0x3f86e39a	1.0538208
106	0x3fc19519	1.5123626
107	0x3f5f8aca	0.8732115
108	0x3f7e7258	0.99393225
109	0x3f852416	1.0401638
110	0x3f88eb09	1.0696727
111	0x40537e0d	3.3045685
112	0x3f8dca3c	1.1077342
113	0x3fbf9802	1.4968264
114	0x3f8ae41d	1.0850865
115	0x3f29aaf6	0.6627649
116	0x3f47d71d	0.7806261
117	0x3f1848ac	0.5948589
118	0x3f6853b7	0.9075274
119	0x3f1f9281	0.6233292
120	0x3f879a13	1.0593895
121	0x3f84303f	1.0327224
122	0x3f34cc19	0.7062393
123	0x3f951a5c	1.1648669
124	0x3f7d8b91	0.99041086
125	0x3f3f1452	0.7464038
126	0x3f5610b1	0.8361922
127	0x3f8a73d7	1.0816602

bn1.bias f4 [128]
0	0xbe229365	-0.15876539
1	0xbde14165	-0.10998801
2	0xbcd1d7ea	-0.025615651
3	0xbd41372e	-0.047171764
4	0xbe097637	-0.13424002
5	0xbda1ed87	-0.07906633
6	0xbe3db70f	-0.18526863
7	0xbea1bfb7	-0.3159158
8	0xbc7d6775	-0.015466561
9	0xbf03588d	-0.5130699
10	0xbec1ddfb	-0.3786467
11	0xbdb7243c	-0.08942458
12	0xbeba75a6	-0.36417884
13	0xbeb575e2	-0.354415
14	0x3e065ecf	0.13122104
15	0xbdd504f8	-0.10401338
16	0xbec9262b	-0.39286932
17	0xbe9958ad	-0.29950467
18	0xbd88bd73	-0.066767596
19	0x3e38f1d4	0.18061
20	0x3d88f038	0.06686443
21	0xbe0bfcfe	-0.13670728
22	0xbe64b47b	-0.22334473
23	0x3e47ada8	0.19499838
24	0x3d4b93d5	0.04970153
25	0xbe1ca788	-0.15298283
26	0xbd62b6e5	-0.055350203
27	0xbcff5504	-0.031168468
28	0xbc5f1ade	-0.0136172455
29	0xbd6280c5	-0.055298585
30	0xbe5d5d4f	-0.21617626
31	0xbea338e8	-0.31879354
32	0xbe31ed25	-0.1737562
33	0x3dc7fee6	0.09765415
34	0x3cf7031b	0.030152848
35	0xbee9b393	-0.45644817
36	0x3de6b34c	0.11264667
37	0x3d4730e2	0.048630603
38	0xbd3995af	-0.045308765
39	0xbe46e48a	-0.19423118
40	0xbe1ec149	-0.1550342
41	0xbe8426e2	-0.25810915
42	0x3c6e44f8	0.014542811
43	0xbed5a2a8	-0.4172566
44	0xbdd6b948	-0.10484558
45	0x3d071ab7	0.03298446
46	0xbe481243	-0.19538216
47	0xbd221cd4	-0.039578274
48	0xbeaa619f	-0.33277604
49	0x3d3ffc21	0.04687131
50	0xbecdc5d0	-0.4018998
51	0xbe38575e	-0.18002078
52	0x3cbbbdb4	0.022917606
53	0xbd4906df	-0.04907882
54	0xbe7a5ae5	-0.24448736
55	0xbed02eaa	-0.40660602
56	0xbe32fb26	-0.17478618
57	0xbe1ee065	-0.15515287
58	0x3e4cdabd	0.20005317
59	0xbede073a	-0.43364888
60	0xbeaad21f	-0.33363435
61	0xbd1352b7	-0.035967555
62	0xbd0120c2	-0.03152538
63	0x3caf838c	0.021425031
64	0xbe3495b0	-0.17635226
65	0x3d12c43f	0.035831686
66	0xbc31ff57	-0.0108641
67	0xbda35d2b	-0.07976755
68	0xbeb6c6dc	-0.35698593
69	0xbe141604	-0.14461523
70	0xbe004650	-0.12526822
71	0xbe3d80b0	-0.18506122
72	0xbec3d4c0	-0.38248253
73	0xbdace827	-0.08442717
74	0xbe5344bb	-0.20631687
75	0xbe8d41ab	-0.27589163
76	0x3c35e38a	0.011101613
77	0xbe097d2e	-0.13426659
78	0xbcad2aaa	-0.021138508
79	0xbedaac5a	-0.4270962
80	0xbe7686f7	-0.24074923
81	0xbe5851f6	-0.21125016
82	0xbd7b6838	-0.061378688
83	0xbd626ea5	-0.0552813
84	0xbd8125d5	-0.06306044
85	0xbebea301	-0.37233737
86	0xbe2043fb	-0.15650932
87	0xbd2b61c1	-0.041841272
88	0xbeccf4a7	-0.40030405
89	0xbdb5f34f	-0.08884298
90	0xbdff7be3	-0.124748014
91	0xbe08a1c3	-0.13342957
92	0xbedabdcd	-0.42722932
93	0x3ddd780a	0.10813911
94	0xbe16f4d7	-0.14741836
95	0xbe56658a	-0.20937172
96	0x3e4ef3a4	0.20210129
97	0xbe380df6	-0.17974076
98	0xbe8cfd59	-0.2753704
99	0xbef7b7fc	-0.48382556
100	0x3cb131aa	0.021630127
101	0x3dde1a7b	0.108448945
102	0xbe6cf5d4	-0.23140651
103	0xbe04d7bf	-0.12972926
104	0xbebf0c79	-0.37314203
105	0xbdcf007c	-0.10107514
106	0x3e5f1e1f	0.21788834
107	0xbe8a49a4	-0.27009308
108	0xbe49f538	-0.1972245
109	0xbd9332e7	-0.07187443
110	0xbe2dd53a	-0.1697587
111	0x3e396893	0.18106298
112	0xbd319b2a	-0.043360867
113	0x3e3d83b9	0.1850728
114	0xbd122250	-0.035677254
115	0xbec68f23	-0.3878108
116	0xbebc3c12	-0.3676458
117	0xbee2d544	-0.44303334
118	0xbe5e71ba	-0.2172307
119	0xbefd5171	-0.49476197
120	0xbe2b08c0	-0.16702557
121	0xbe686725	-0.22695597
122	0xbede438c	-0.4341091
123	0x3d6e87d1	0.058234993
124	0xbe7ac1de	-0.24488017
125	0xbeb55f0f	-0.35424086
126	0xbe9d6afe	-0.3074569
127	0x3d190321	0.0373565

fc2.weight f4 [128, 128]
0	0x3e1a6f8b	0.15081613
1	0x3e34eddb	0.1766886
2	0x3d550645	0.052007932
3	0x3e1e166b	0.1543824
4	0x3dc11be4	0.09429148
5	0x3de4d00f	0.111724965
6	0x3e0a4df5	0.13506301
7	0xbdf8737d	-0.12131403
8	0x3ea971ed	0.3309473
9	0xbe03bd51	-0.12865187
10	0xbe31eedb	-0.17376272
11	0x3dda8b88	0.10671145
12	0xbd1f10c0	-0.038834333
13	0xbdd54693	-0.104138516
14	0x3e32f083	0.1747456
15	0x3d8cd515	0.0687658
16	0xbe20fd92	-0.1572173
17	0xbd3deefe	-0.0463705
18	0x3e615cd9	0.22008075
19	0x3f053f38	0.5204959
20	0x3dd93cb6	0.10607283
21	0xbc7fdbc7	-0.015616364
22	0x3dceaf67	0.10092049
23	0x3f975013	1.1821312
24	0x3df858d0	0.12126315
25	0x3dda1b4c	0.10649738
26	0x3e1f245c	0.15541214
27	0x3d84086b	0.06446918
28	0xbd2545a2	-0.04034961
29	0x3e583d66	0.21117172
30	0xbe11fa08	-0.14255536
31	0xbde47efb	-0.11157032
32	0x3df3c507	0.11902814
33	0x3df2bf6a	0.118529156
34	0x3e2c2eb5	0.16814692
35	0xbe1e507a	-0.15460387
36	0x3e147f22	0.14501622
37	0x3e7a3fe3	0.24438433
38	0x3e7e6eb5	0.24846919
39	0x3df1cc23	0.11806514
40	0x3dd9691c	0.10615751
41	0xbdbab7cf	-0.0911709
42	0x3e5732c7	0.21015464
43	0xbe49c83c	-0.1970529
44	0xbc504ac3	-0.012713137
45	0x3e83eaaa	0.25764972
46	0x3dce2739	0.10066075
47	0x3e16b5d3	0.14717798
48	0xbdf34acb	-0.118795
49	0x3e8284dd	0.25491992
50	0xbdf77424	-0.12082699
51	0x3dacafde	0.084319815
52	0x3dfb86af	0.12281548
53	0x3e19c22c	0.15015477
54	0x3d20ee7b	0.039289933
55	0xbe0b350c	-0.13594455
56	0x3d9eb9ca	0.0775028
57	0x3df8167f	0.12113666
58	0x3ecc2835	0.39874426
59	0xbe0f6c2a	-0.14006105
60	0xbdd35f83	-0.10320952
61	0x3df5e4c7	0.120065264
62	0x3dc235e2	0.094829336
63	0x3e158acb	0.14603727
64	0xbc86e0bf	-0.01646459
65	0x3e75fecb	0.24022977
66	0x3e30c4a8	0.17262518
67	0x3d0f59bf	0.034997698
68	0xbd682b1f	-0.05668175
69	0x3ddddff3	0.108337305
70	0x3db134d4	0.08652654
71	0xbd1edbc0	-0.03878379
72	0x3d4c2059	0.049835537
73	0x3dce5985	0.10075668
74	0xbd8ca834	-0.0686802
75	0xbd98468c	-0.07435331
76	0xbd828ea2	-0.06374861
77	0x3e09492f	0.13406824
78	0x3e6f5b0d	0.23374577
79	0xbdfcf43c	-0.123512715
80	0x3d9d35fa	0.07676311
81	0x3d39c1bb	0.04535077
82	0x3dc6b405	0.09702305
83	0x3d924271	0.07141579
84	0x3e0959b6	0.13413128
85	0xbe21cc98	-0.15800703
86	0x3d5b11cf	0.05348378
87	0x3e5e1511	0.21687724
88	0xbdf119ce	-0.117725
89	0x3e07f581	0.13277246
90	0x3e181fab	0.1485583
91	0x3e1020cd	0.14075013
92	0xbe016586	-0.12636384
93	0x3e58e24c	0.21180075
94	0x3e197710	0.14986825
95	0x3cc2f152	0.023796711
96	0x3f0770d3	0.5290653
97	0x3df10143	0.11767819
98	0xbdb01f5d	-0.08599732
99	0xbe30ecca	-0.17277828
100	0x3e418295	0.1889747
101	0x3f1f059e	0.62117946
102	0x3ccaece5	0.024771163
103	0x3d96f790	0.073714375
104	0xbde0f0ac	-0.109834045
105	0x3d66483a	0.056221224
106	0x3f0d48d2	0.5518924
107	0xbd19569d	-0.037436116
108	0x3dc854a7	0.09781771
109	0x3de57c2c	0.112053245
110	0xbd49997a	-0.049218632
111	0x3ffeb213	1.9898094
112	0x3e1e426a	0.15455022
113	0x3f0e495f	0.55580705
114	0x3ac2b1e4	0.0014854041
115	0xbdf32b65	-0.11873511
116	0xbdbbc92a	-0.091692284
117	0xbdb003c4	-0.08594468
118	0xbc00c2c0	-0.007858932
119	0xbe06563f	-0.13118838
120	0x3def61cd	0.11688576
121	0xbcf40f88	-0.029792562
122	0xbdf89df3	-0.121395014
123	0x3eab27a4	0.3342868
124	0x3de561fa	0.11200328
125	0xbded6e50	-0.11593306
126	0xbe4c6b43	-0.19962792
127	0x3d8896f8	0.0666942
128	0xbd2efdff	-0.0427227
129	0x3cdd9177	0.027046902
130	0xbcf0de9f	-0.029403029
131	0x3d4715fb	0.048604947
132	0xbe1ea5be	-0.15492913
133	0x3d5344e7	0.051579382
134	0x3d0faa45	0.03507449
135	0x3c002f9d	0.007823852
136	0x3c438f90	0.011936083
137	0x3cde74b7	0.027155263
138	0x3bfbdbac	0.007686099
139	0x3cdf0246	0.027222764
140	0x3b98873b	0.0046547926
141	0xbc1fcad8	-0.009752952
142	0x3bb451c3	0.005502911
143	0xbcbd3219	-0.023095177
144	0x3cb7ad53	0.022421515
145	0x3cece918	0.028919742
146	0xbd2c0f7c	-0.042006955
147	0x3d2c3cc0	0.042050123
148	0x3bc71929	0.0060759974
149	0x3cd30fbb	0.025764337
150	0x3c990720	0.018680155
151	0xbe6ec747	-0.23318206
152	0x3b2f9684	0.0026792595
153	0xbd2b0597	-0.041753378
154	0xbcf3d168	-0.029762939
155	0x3b947a2d	0.004531166
156	0xbc781fe2	-0.01514432
157	0x3c28729f	0.010281234
158	0xbd192880	-0.03739214
159	0xbd96b42d	-0.073585846
160	0xbd48b4b9	-0.049000476
161	0x3bea532c	0.007151028
162	0x3d9b01b6	0.07568686
163	0xbbe43028	-0.0069637485
164	0xbdb0ba2a	-0.08629258
165	0x3b00fdf3	0.0019682616
166	0x3d64c0f5	0.05584808
167	0xbd8de666	-0.06928711
168	0x3d0650e8	0.032792002
169	0x3d17417f	0.036927696
170	0x3d2b39c9	0.041803155
171	0x3c9a04d2	0.018801127
172	0xbd990733	-0.07472076
173	0x3cc25425	0.023721764
174	0x3d1a8bfa	0.03773115
175	0x3ce03ff6	0.027374249
176	0x3bae13f6	0.005312438
177	0x3d16b96b	0.036797922
178	0x3c78258e	0.0151456725
179	0x3d01362b	0.0315458
180	0xbd8eeecb	-0.0697914
181	0x3d2a768f	0.041616973
182	0xbca5e116	-0.02024893
183	0x3c3e1fd2	0.011604266
184	0xbc758aca	-0.014986703
185	0xbd3622fa	-0.04446695
186	0x3c6d46ae	0.014482183
187	0x3ce960a3	0.028488463
188	0x3cc9841b	0.024599126
189	0x3b05a38d	0.0020391673
190	0x3dd64878	0.10463041
191	0xbab70742	-0.0013963955
192	0x3c02e86c	0.007989984
193	0x3d50d79f	0.050986882
194	0x3d4afa62	0.04955519
195	0x3c20d6ef	0.009816869
196	0xbd0e9707	-0.034812
197	0xbbea273e	-0.0071457913
198	0xbd0977a1	-0.033561353
199	0x3cb364c8	0.021898642
200	0xbc08c7f9	-0.008348458
201	0xbb1600b9	-0.0022888614
202	0x3d182041	0.037140135
203	0x3d84a52a	0.06476815
204	0xbcbf3714	-0.023341693
205	0x3bb0465e	0.005379482
206	0xbc18535c	-0.009297218
207	0x3c8ef169	0.017449098
208	0x3d505efd	0.050871838
209	0xbcf62bff	-0.030050276
210	0x3d537682	0.05162669
211	0x3d755690	0.059897006
212	0x3d14d98f	0.036340293
213	0xbc722e27	-0.014781511
214	0x3d1d8057	0.038452473
215	0x3dac819a	0.08423157
216	0xbcd68044	-0.026184209
217	0x3d8ffbab	0.07030424
218	0x3d2f206d	0.042755533
219	0x3d52da56	0.051477753
220	0xbca3ec16	-0.020010035
221	0xbd9ae51a	-0.07563229
222	0x3cd9e01c	0.026596121
223	0x3b2eac81	0.0026653113
224	0xbe0d1a13	-0.13779478
225	0x3cbfe9df	0.023426948
226	0xbd032c44	-0.032024637
227	0x3c9da891	0.019245418
228	0x3c84683e	0.016162988
229	0xbde621a4	-0.11236885
230	0xbd1f31a1	-0.03886569
231	0x3c9bad80	0.01900363
232	0x3bd5687f	0.006512701
233	0x3da9dead	0.08294425
234	0xbd7252f6	-0.05916115
235	0xbc8b1470	-0.016977519
236	0xbd991452	-0.07474579
237	0xba5f2cf2	-0.0008513472
238	0x3d5fd536	0.054646693
239	0xbe96cc27	-0.2945263
240	0x3d066bd7	0.032817688
241	0xbe0a53e2	-0.13508561
242	0x3cd20ea2	0.025641743
243	0x3c8122c4	0.015763648
244	0x3c09c64c	0.008409094
245	0x3ccc56c4	0.024943717
246	0x3d1e66f5	0.038672406
247	0x3cc7ba56	0.024380844
248	0x3d7763bd	0.060397852
249	0xbcdee27e	-0.02720761
250	0xbbdc0d53	-0.0067154556
251	0xbd82b0c8	-0.063813746
252	0xbc88508b	-0.016639968
253	0xbd2d0fa5	-0.042251248
254	0xbcfa48ba	-0.030552257
255	0xbd6f75d2	-0.05846197

fc2.bias f4 [128]
0	0xbe61de7b	-0.22057526
1	0x3d79effd	0.061019886
2	0x3d804bb1	0.06264437
3	0xbcc8bf2e	-0.024505224
4	0xbe4d9171	-0.20075013
5	0xbc4afcb6	-0.012389353
6	0x3e02bb6a	0.12766805
7	0xbdb882fd	-0.09009359
8	0x3da2854f	0.07935583
9	0x3d878190	0.06616509
10	0x3db5304b	0.08847102
11	0xbbea3127	-0.0071469727
12	0x3d520f43	0.051284086
13	0x3da7c053	0.0819098
14	0x3c7bc181	0.015365959
15	0x3d88db45	0.06682447
16	0x3c87989a	0.016552258
17	0xbc189fe5	-0.009315466
18	0x3da0337b	0.07822319
19	0x3c1e58da	0.009664739
20	0xbc30a7c1	-0.010782183
21	0x3cd25271	0.025674077
22	0xbb69f9d3	-0.0035701885
23	0xbd37526a	-0.04475633
24	0x3ce1a751	0.027545603
25	0xbdf32e07	-0.118740134
26	0xbd6b790c	-0.057488486
27	0xbce8c5c4	-0.028414614
28	0xbd606f67	-0.05479374
29	0xbd40f954	-0.047112778
30	0xbd99c477	-0.07508176
31	0x3da64e1f	0.08120369
32	0xbd075d5b	-0.033048015
33	0x3d3eeee1	0.04661453
34	0x3cb481cf	0.022034554
35	0x3d924842	0.07142688
36	0x3d45bf9a	0.04827843
37	0xbe4a4674	-0.19753438
38	0x3d9c08c4	0.076188594
39	0x3d1ffaec	0.039057657
40	0x3cf17c94	0.029478349
41	0x3d0d5d5e	0.03451287
42	0x3d188cc6	0.037243627
43	0xbc0446e0	-0.008073539
44	0x3b2a0741	0.0025944265
45	0xbcf1efaf	-0.029533235
46	0x3d7b1f16	0.061308943
47	0x3db096bf	0.086225025
48	0xbc97306a	-0.018455703
49	0x3de75504	0.11295512
50	0x3c6ceb72	0.014460431
51	0xbd1ff86f	-0.039055284
52	0x3cfc568c	0.030802988
53	0x3dc32316	0.095281765
54	0x3c4c7dc7	0.0124811595
55	0x3db200b4	0.0869154
56	0xbe01ced2	-0.12676552
57	0x3e278a4b	0.16361348
58	0xbd587d25	-0.052853722
59	0xbc9ef7d9	-0.019405292
60	0xbadb69bc	-0.0016739885
61	0xbc597449	-0.013272353
62	0x3b251946	0.0025192066
63	0xbd978fda	-0.074004844
64	0xbd1e1445	-0.03859355
65	0xbd334798	-0.04376945
66	0x3bd524a3	0.0065046116
67	0x3d67e1ca	0.056611814
68	0x3db63c5a	0.0889823
69	0xbc445b78	-0.0119846985
70	0x3dfbfe3c	0.12304351
71	0x3e013531	0.12617947
72	0x3b8d1209	0.0043051285
73	0x3cf2a473	0.029619431
74	0x3d81b0e8	0.0633257
75	0xbd1d3c37	-0.038387503
76	0xbd2da472	-0.042393155
77	0xbc8256e2	-0.01591057
78	0x3d1d61b0	0.03842324
79	0x3de6582b	0.112472855
80	0xbcf7b94f	-0.03023973
81	0x3d59b0bf	0.053147074
82	0xbd239cb3	-0.039944362
83	0xbd144f24	-0.036208287
84	0x3d35a412	0.044345923
85	0x3c7acd41	0.015307725
86	0x3d20e445	0.039280195
87	0xbd16bf58	-0.036803573
88	0x3d78be55	0.06072839
89	0x3d282074	0.041046575
90	0x3cf1b42d	0.02950486
91	0x3e0230b7	0.12713896
92	0x3d15f605	0.036611576
93	0xbcc63df2	-0.02419946
94	0x3d8c086b	0.06837543
95	0x3d31023e	0.04321503
96	0xbcc3be33	-0.023894405
97	0x3c8d45ff	0.01724529
98	0x3cfb329c	0.03066378
99	0xbcfb2e65	-0.030661771
100	0x3d5956d8	0.053061336
101	0xbd92f4c0	-0.071755886
102	0xbccc286f	-0.024921624
103	0xbcdb4a20	-0.026768744
104	0x3dfba307	0.122869544
105	0xbe949c88	-0.29025674
106	0xbd2fd0bd	-0.042923678
107	0xbdbf650c	-0.09345445
108	0x3d171a26	0.03689017
109	0xbd388f5f	-0.045058604
110	0x3d9e2662	0.07722165
111	0x3bb908b1	0.005646788
112	0xbc28bc58	-0.010298811
113	0x3d2a3526	0.041554593
114	0xbd2bb271	-0.04191822
115	0x3cde94e9	0.027170615
116	0xbd910151	-0.07080329
117	0x3cb85b06	0.02250434
118	0x3cc3890b	0.023869058
119	0xbdfc5184	-0.12320235
120	0x3db7ce31	0.08974875
121	0x3d11ba62	0.03557814
122	0xba85111f	-0.0010152197
123	0x3db0204e	0.08599912
124	0x3ca03e81	0.019561054
125	0xbdcf94d9	-0.10135812
126	0x3d926086	0.07147317
127	0x3c4c0438	0.012452178

bn2.weight f4 [128]
0	0x3f45b30b	0.7722632
1	0x3fec565f	1.8463858
2	0x3fd4c07f	1.6621245
3	0x3fdda391	1.7315542
4	0x3f70a858	0.9400687
5	0x3ff35c3f	1.9012526
6	0x3fdeaf66	1.7397277
7	0x3f8083f7	1.0040272
8	0x3fcf391f	1.6189307
9	0x3fe32e3e	1.7748487
10	0x3fed310a	1.853059
11	0x3fe36ad7	1.776698
12	0x3fe0ad17	1.7552823
13	0x3fd89fdc	1.6923785
14	0x3fec757b	1.8473352
15	0x3fb3dd9b	1.4052004
16	0x3fc48740	1.5353775
17	0x3fdecc99	1.7406188
18	0x3ff2a559	1.895671
19	0x3ff7c31b	1.9356416
20	0x3f940973	1.1565384
21	0x3fd31512	1.6490805
22	0x3f9628da	1.1731217
23	0x3fe5ad02	1.7943423
24	0x3fc7e8b4	1.561789
25	0x3f60598a	0.87636626
26	0x3ffbdd9d	1.9677006
27	0x3ff6ec83	1.9290928
28	0x3fe915ff	1.8209838
29	0x3ff7be83	1.9355015
30	0x3f5f9855	0.87341815
31	0x3ff026b7	1.8761815
32	0x3ff856a7	1.9401444
33	0x3fe27379	1.769149
34	0x3ff4910f	1.9106768
35	0x3fea0347	1.828225
36	0x3fea0e26	1.8285568
37	0x3f7f82bf	0.9980888
38	0x3fb87f6a	1.4413884
39	0x3fd9de55	1.7020975
40	0x3f8e791d	1.1130711
41	0x40019749	2.0248587
42	0x3f9b9a0c	1.2156386
43	0x3ff45629	1.9088794
44	0x3fe236b5	1.7672945
45	0x3ff5a26c	1.9190192
46	0x3fdf6423	1.7452434
47	0x3fcc3d17	1.5956143
48	0x3ff71077	1.93019
49	0x3fc26f7b	1.5190271
50	0x3fea5da4	1.8309827
51	0x3fe0c785	1.7560889
52	0x3fdb6b82	1.7142184
53	0x3fc978bd	1.5739971
54	0x3ff0079c	1.8752322
55	0x3fc7152f	1.555334
56	0x3f825ce5	1.0184599
57	0x3f8884bf	1.0665511
58	0x3fcd6a85	1.6048132
59	0x3ff28f58	1.8949995
60	0x3fc1027f	1.5078887
61	0x3fe36d5c	1.7767749
62	0x3ff5692b	1.917272
63	0x3fecabfa	1.8489983
64	0x3fde0c11	1.7347432
65	0x3fe4a754	1.7863564
66	0x3fcbc6b4	1.5920014
67	0x3fe85742	1.8151629
68	0x3ff0ff72	1.8827956
69	0x3fd2c106	1.6465156
70	0x3fcf4b43	1.6194843
71	0x3fbbbb6b	1.466657
72	0x3feda7a5	1.8566786
73	0x3fa3b371	1.2789136
74	0x3fe668ab	1.8000692
75	0x3ff5a377	1.919051
76	0x3ff424bf	1.9073714
77	0x3ff5fef7	1.9218434
78	0x3feaa69b	1.8332094
79	0x3fbcc4ce	1.474756
80	0x3fe52fb2	1.790518
81	0x3fce0073	1.6093887
82	0x3ff10509	1.8829662
83	0x3ff37feb	1.9023412
84	0x3fd3b413	1.6539329
85	0x3fdc131a	1.7193329
86	0x3fc8bbfe	1.5682371
87	0x3fe3b928	1.779088
88	0x3fe76191	1.807665
89	0x3fcfa23f	1.6221389
90	0x3fefde8f	1.8739794
91	0x3fc0001d	1.5000035
92	0x3ff6bc72	1.9276259
93	0x3ff09767	1.8796204
94	0x3fbdfb99	1.4842407
95	0x3fe5b760	1.7946587
96	0x3feccd31	1.850012
97	0x3fea8e57	1.8324689
98	0x3fefa581	1.8722383
99	0x3febcc7a	1.8421776
100	0x3fe9254e	1.821451
101	0x3fe964b5	1.8233858
102	0x3ff93db6	1.9471958
103	0x3fdfd7a7	1.7487687
104	0x3f76c1c4	0.9638941
105	0x3f55ad8d	0.8346794
106	0x3fe3de3c	1.7802196
107	0x3fea5869	1.8308231
108	0x3febbd20	1.8417091
109	0x3fead6c2	1.8346789
110	0x3fcf71a3	1.6206554
111	0x3f9a78bd	1.2068096
112	0x3fd422b6	1.6573093
113	0x3fdee056	1.7412212
114	0x3f6e09f4	0.9298394
115	0x3ff041c7	1.8770074
116	0x3fcdb0b4	1.606955
117	0x3ff73a99	1.9314758
118	0x3fe61a2c	1.7976737
119	0x3f5f03e7	0.8711533
120	0x3fe86bcb	1.8157896
121	0x3fee3770	1.8610668
122	0x3f8fed94	1.1244378
123	0x3fb8c17e	1.4434049
124	0x3fc420ca	1.5322506
125	0x3feb92f7	1.8404225
126	0x3fe7ae1f	1.8100013
127	0x3ff9ee56	1.9525859

bn2.bias f4 [128]
0	0x3e810a06	0.2520296
1	0x3eaab5e5	0.333419
2	0x3e452938	0.19254005
3	0x3ea39a24	0.31953537
4	0xbf35dc6e	-0.71039474
5	0x3ead2069	0.3381379
6	0x3d8b1006	0.067901656
7	0xbe58eb60	-0.21183538
8	0x3e5dacbf	0.21647929
9	0x3ea88032	0.32910305
10	0x3e9ca146	0.30591792
11	0x3df0cdc5	0.117579974
12	0x3e4431ac	0.19159573
13	0x3e450d8f	0.19243453
14	0x3e8f5e05	0.2800142
15	0x3e8d4b2a	0.27596408
16	0x3c249078	0.01004421
17	0x3e802cf5	0.250343
18	0x3edae25d	0.42750826
19	0x3eb221d9	0.3479145
20	0xbe037978	-0.12839305
21	0x3e6630eb	0.22479598
22	0x3d2042b0	0.0391261
23	0x3eb558e9	0.35419396
24	0x3e023491	0.12715365
25	0xbe892c78	-0.2679174
26	0x3e87e864	0.26544487
27	0x3e93349b	0.28751072
28	0x3e6ae58b	0.22939126
29	0x3ea3c606	0.31987017
30	0x3e02a62a	0.12758699
31	0x3e845191	0.2584348
32	0x3ed0c3e5	0.40774456
33	0x3e3ababe	0.18235299
34	0x3eba81d4	0.36427176
35	0x3beda18e	0.007251925
36	0x3edc4dd5	0.4302813
37	0xbf0046c1	-0.5010796
38	0x3d38b189	0.045091186
39	0x3e387699	0.18013991
40	0xbe7dcebf	-0.24785899
41	0x3e94a5e3	0.29032812
42	0xbd567c4c	-0.052364632
43	0x3edc91d1	0.4308
44	0x3eacdd04	0.33762372
45	0x3e917971	0.28412965
46	0x3e3c57c0	0.18392849
47	0x3ef2c22a	0.4741376
48	0x3e8de8db	0.27716717
49	0x3e97273c	0.2952212
50	0x3ed9c0ef	0.4253001
51	0x3e75e206	0.24012002
52	0x3e069d1d	0.13145871
53	0x3e7c1d5a	0.24620572
54	0x3eb19c1f	0.34689423
55	0xbd518664	-0.051153556
56	0xbe8436bf	-0.25823018
57	0xbb8bd89a	-0.0042677643
58	0x3e28ce24	0.16484886
59	0x3e8dd2b4	0.27699816
60	0x3e90574d	0.28191605
61	0x3ed21592	0.41032082
62	0x3ea3582c	0.31903207
63	0x3ec3f04c	0.3826927
64	0x3e6d3c3a	0.23167506
65	0x3e10a0e7	0.1412388
66	0x3e029ae9	0.12754406
67	0x3e9cf9e4	0.306594
68	0x3ec35195	0.3814818
69	0x3eca181c	0.3947152
70	0x3ee6f522	0.45108896
71	0xbdfc5475	-0.123207964
72	0x3ebce8a1	0.36896232
73	0xbe67b47b	-0.22627442
74	0x3e0db70b	0.13839357
75	0x3e92ef63	0.28698263
76	0x3e8771ad	0.26453915
77	0x3ea6b677	0.32561085
78	0x3e43a562	0.19106057
79	0x3e4e2a8e	0.20133421
80	0x3eb32786	0.3499109
81	0x3e8cfb5f	0.2753553
82	0x3ed387d9	0.4131458
83	0x3eb0d2de	0.3453588
84	0x3d941387	0.07230287
85	0x3e0a7520	0.13521242
86	0x3e8d6832	0.27618557
87	0x3e288920	0.16458559
88	0x3eb9572c	0.3619932
89	0x3e31ab18	0.17350423
90	0x3eb99fd9	0.36254767
91	0x3e892c5b	0.26791653
92	0x3edac4a5	0.42728153
93	0x3e92cfc4	0.28674138
94	0x3dc96ad0	0.09834826
95	0x3e490576	0.1963099
96	0x3ec7fedb	0.39061627
97	0x3ec80764	0.3906814
98	0x3eb3b681	0.35100177
99	0x3e812c16	0.25228947
100	0x3e0cd40e	0.13752767
101	0x3e6181c4	0.22022158
102	0x3eadaf8a	0.33922988
103	0x3eae7e8c	0.34080923
104	0xbddd8f28	-0.108183205
105	0xbf036e3e	-0.5134009
106	0x3ecbe4ed	0.39823094
107	0x3e9897b5	0.29803243
108	0x3e946a56	0.28987378
109	0x3ee77130	0.45203543
110	0x3e103c3a	0.14085475
111	0xbd1fc33d	-0.039004553
112	0x3e5d86f1	0.21633507
113	0x3edacdc0	0.427351
114	0xbd9eaf53	-0.07748284
115	0x3e959c96	0.29221028
116	0x3d949e1b	0.07256719
117	0x3e909dd7	0.28245422
118	0xbcddab29	-0.027059155
119	0x3e15e5f7	0.14638506
120	0x3e43109e	0.19049308
121	0x3ea2fd94	0.3183409
122	0xbd0029eb	-0.031289976
123	0x3e7b1b63	0.24522166
124	0x3e7b60dc	0.24548668
125	0x3e0a674b	0.13515966
126	0x3eb23f24	0.34813797
127	0x3e8d0bd3	0.27548084

fc3.weight f4 [24, 128]
0	0x3d46ff06	0.048583053
1	0x3e837362	0.25673968
2	0x3e839d5e	0.25706
3	0x3d49dbf0	0.049282014
4	0x3b5c6e00	0.00336349
5	0x3e528432	0.20558241
6	0xbd1e79f1	-0.03869051
7	0x3c14b6b3	0.009076762
8	0x3e87ab93	0.26498088
9	0x3e64f054	0.22357303
10	0x3e4a36c2	0.19747451
11	0xbdc823c1	-0.097724445
12	0x3e896c94	0.2684065
13	0xbe388cbb	-0.18022434
14	0x3eaf9790	0.3429532
15	0xbe64ffcf	-0.22363208
16	0xbca26f80	-0.019828558
17	0x3df16475	0.11786739
18	0x3e4abe99	0.1979927
19	0x3e598398	0.21241605
20	0x3e05c9aa	0.1306521
21	0x3e7f4bcc	0.24931258
22	0x3d493e9e	0.049131982
23	0x3c4f3735	0.01264744
24	0xbe04c174	-0.12964422
25	0x3d22af8b	0.039718192
26	0x3e9fa94b	0.31183848
27	0x3e2b4137	0.16724096
28	0x3ec135af	0.3773627
29	0x3e486ce0	0.19572783
30	0x3d8f1b32	0.06987609
31	0x3e89457c	0.26810825
32	0x3e818b43	0.2530156
33	0x3e671d03	0.22569661
34	0x3e81ea68	0.2537415
35	0xbed34c49	-0.41269138
36	0x3e63c3d3	0.2224267
37	0xbc347239	-0.011013561
38	0xbdf8f190	-0.121554494
39	0x3e958c53	0.2920862
40	0xbbf428ad	-0.007451138
41	0x3e14eafc	0.14542764
42	0xbd9a42ca	-0.0753227
43	0x3e8c3e2b	0.2739118
44	0x3e1a2db4	0.15056497
45	0x3e87b3a0	0.2650423
46	0x3e20af38	0.1569184
47	0x3d7179aa	0.05895392
48	0x3e8233a6	0.2543003
49	0x3e1d5a50	0.15366483
50	0x3db7ff77	0.08984273
51	0x3e61f4e9	0.22066082
52	0x3e903719	0.28167036
53	0x3d1ed487	0.0387769
54	0x3e8ccbbe	0.27499193
55	0x3e069a2a	0.13144746
56	0x3db51e18	0.088436306
57	0x3cb587ce	0.022159483
58	0x3e5f4d20	0.21806765
59	0x3edb1330	0.42788076
60	0x3e7ffae1	0.24998046
61	0x3e5174fe	0.20454785
62	0x3e8e77be	0.2782573
63	0x3e435519	0.19075431
64	0x3dc60ce8	0.096704304
65	0x3e7f117b	0.24909012
66	0x3e2a7629	0.16646637
67	0x3e8730c4	0.26404393
68	0x3e69fb41	0.22849752
69	0x3e1acb7d	0.15116687
70	0x3e322c46	0.17399701
71	0xbe47ffe6	-0.19531211
72	0x3e8f3601	0.2797089
73	0xbd4d78d7	-0.05016407
74	0x3e6b03bc	0.22950643
75	0x3e9608b2	0.2930351
76	0x3e768278	0.24073207
77	0x3e1d6f2f	0.15374444
78	0x3eb51960	0.35370922
79	0x3e0abb41	0.13547994
80	0x3e5bd7fa	0.21469107
81	0xbc9c7bcb	-0.019101998
82	0x3e8f8e2b	0.28038153
83	0x3e87c536	0.26517648
84	0xbdc22a32	-0.09480704
85	0x3acdebcd	0.0015710533
86	0x3d91af6a	0.07113536
87	0x3e30fdeb	0.17284362
88	0x3e14cfbe	0.14532372
89	0x3d4dc7e6	0.050239466
90	0x3e71e041	0.23620702
91	0xbc9f6e6e	-0.019461837
92	0x3e92c452	0.28665406
93	0x3e6734af	0.22578691
94	0xbd802ee8	-0.06258947
95	0x3e7e326b	0.2482392
96	0x3eba0052	0.3632837
97	0x3e51c44b	0.20485036
98	0x3e2a75c7	0.16646491
99	0x3e220554	0.15822345
100	0x3e6e38ef	0.23263906
101	0x3d711e72	0.058866926
102	0x3e85702e	0.2606215
103	0xbe0e2916	-0.1388286
104	0x3d5f7c97	0.054562178
105	0x3d078e0e	0.03309446
106	0x3da6e46a	0.08149035
107	0x3e43c716	0.19118914
108	0x3e4563b8	0.19276321
109	0x3e10c54c	0.14137763
110	0x3dfd5aff	0.12370872
111	0xbe0717f7	-0.13192736
112	0xbe9ed52f	-0.3102202
113	0x3e770be5	0.24125631
114	0x3da50440	0.08057451
115	0x3ea61cba	0.32443792
116	0x3de99a27	0.11406355
117	0x3e525bc9	0.20542826
118	0x3ce81437	0.028329952
119	0x3d67cf82	0.05659438
120	0x3ebd4459	0.36966208
121	0x3e80c3bb	0.2514933
122	0x3d99e063	0.075135015
123	0xbdfd6949	-0.12373597
124	0x3e879d61	0.26487258
125	0x3e0a5481	0.13508798
126	0x3dfad257	0.122471504
127	0x3e92c564	0.28666222
128	0x3ca2f016	0.019889873
129	0x3e2f8762	0.17141488
130	0x3caa756b	0.020807942
131	0x3d3dd1a4	0.046342507
132	0xbdc6aa8d	-0.09700499
133	0x3ea2177e	0.31658548
134	0x3cef4fb9	0.02921282
135	0x3d893954	0.067003876
136	0x3e268dde	0.16265056
137	0x3e3e04a8	0.18556464
138	0x3def1b4a	0.11675127
139	0xbdac5fb0	-0.084166884
140	0x3e8fc41c	0.28079307
141	0x3d21e5e0	0.039525867
142	0x3ea873ca	0.3290084
143	0x3e656b84	0.22404295
144	0xbd4ea512	-0.050450392
145	0x3e59350f	0.21211646
146	0x3e81ef05	0.2537767
147	0x3e7ab385	0.24482544
148	0x3dfeae06	0.12435536
149	0x3e42a8d7	0.1900972
150	0xbbd378d6	-0.0064536138
151	0x3eb88ccd	0.36044922
152	0xbcc36887	-0.023853553
153	0x3cd87918	0.02642493
154	0x3e9b8cf7	0.30380985
155	0xbc0cd991	-0.008596794
156	0x3de6d457	0.11270969
157	0x3ea37a98	0.3192947
158	0x3d0c1aa6	0.0342051
159	0x3e5a589e	0.21322867
160	0x3e924fd6	0.28576535
161	0x3e5f04f6	0.21779236
162	0x3db496c3	0.08817818
163	0xbdbead83	-0.093104385
164	0x3e70821c	0.23487133
165	0xbd1109a0	-0.03540957
166	0x3d97e044	0.07415822
167	0x3e4c2190	0.19934678
168	0x3cace68a	0.021106023
169	0x3e6d3b41	0.23167135
170	0x3e0bb687	0.13643847
171	0x3ea5d5cd	0.3238968
172	0x3e60db76	0.21958718
173	0x3e8568da	0.26056558
174	0x3df65ed5	0.120298065
175	0x3e0e0e51	0.13872649
176	0x3e10a692	0.14126042
177	0x3da777e9	0.08177168
178	0x3e8cfda6	0.27537268
179	0xbc1d9d79	-0.009620064
180	0x3e8c6349	0.274195
181	0x3da9abcb	0.0828472
182	0x3e49fba2	0.19724897
183	0x3e49e7b4	0.19717294
184	0x3cecdc71	0.028913708
185	0xbcaa08c6	-0.020756137
186	0x3e822709	0.25420406
187	0x3e18607d	0.14880557
188	0x3e4ffaa9	0.20310463
189	0x3dd6b347	0.10483413
190	0x3e42ecb5	0.19035609
191	0x3eaa2dfc	0.33238208
192	0x3e9250b8	0.2857721
193	0x3e574b53	0.21024828
194	0x3e0b7bd9	0.13621463
195	0x3e372ae9	0.17887463
196	0x3d91c429	0.07117493
197	0x3dfd28bc	0.12361285
198	0x3e581066	0.21100006
199	0xbd339c9e	-0.043850534
200	0x3e855e7a	0.26048642
201	0x3dfb5acc	0.122731775
202	0x3dffc582	0.124888435
203	0x3e9f28d1	0.31085828
204	0x3e4aa451	0.19789244
205	0x3db7f023	0.08981349
206	0x3d8e25fb	0.06940838
207	0x3e32934b	0.17439
208	0x3e738080	0.23779488
209	0xbca17446	-0.019708764
210	0x3e5442bf	0.20728587
211	0x3e8dd44f	0.2770104
212	0x3e0d0df7	0.13774858
213	0x3e0a8044	0.13525492
214	0x3d5ef9c9	0.054437432
215	0x3ce8cc33	0.028417682
216	0x3e55e7c8	0.20889199
217	0x3e921307	0.28530142
218	0x3e8827dd	0.26592913
219	0x3d929952	0.0715815
220	0x3e75efd9	0.24017276
221	0x3e8a5803	0.27020273
222	0xbda6937f	-0.081336014
223	0xbc452c4e	-0.012034489
224	0x3e59306f	0.21209882
225	0x3e3bff63	0.18359141
226	0x3df638e4	0.1202257
227	0xbe03c541	-0.12868215
228	0x3dfb3641	0.122662075
229	0x3e6c4a57	0.23075233
230	0x3ea5de1a	0.32396013
231	0x3e02f7c9	0.12789835
232	0x3d1fc5d6	0.03900703
233	0x3c095a33	0.008383322
234	0x3e530f67	0.20611344
235	0x3eb16bc1	0.34652522
236	0x3e95ad17	0.2923362
237	0x3df2a394	0.11847606
238	0x3e9d2c44	0.30697834
239	0xbd3ec2f9	-0.04657266
240	0x3ac5020e	0.001503052
241	0x3e84a2f6	0.2590558
242	0x3d1e9477	0.038715806
243	0x3eb9cd7e	0.3628959
244	0x3eacaa77	0.33723804
245	0x3ed4ea07	0.415848
246	0xbe8bdfa8	-0.27319074
247	0x3cd0a853	0.025470888
248	0x3e4d1c0b	0.20030229
249	0x3e855c29	0.26046875
250	0x3e0ab10e	0.13544104
251	0x3e609f7b	0.21935837
252	0x3e51f654	0.20504123
253	0x3e9c7a29	0.3056195
254	0x3e85a9f1	0.26106218
255	0x3e40522e	0.18781349

fc3.bias f4 [24]
0	0x3edfa8d8	0.43683505
1	0x3ec7c0a4	0.3901416
2	0x3ede6e31	0.43443444
3	0x3f06f3a9	0.52715546
4	0x3ef4017d	0.47657385
5	0x3ed6db20	0.41964054
6	0x3f0328cc	0.51234126
7	0x3f144b7d	0.57927686
8	0x3f0a0f6d	0.5392979
9	0x3eb7b4d2	0.35880142
10	0x3efacf86	0.48986453
11	0x3ecef597	0.40421745
12	0x3edaf3db	0.42764172
13	0x3eda108e	0.42590755
14	0x3edb1c1f	0.42794892
15	0x3eda0f76	0.4258992
16	0x3eef6a51	0.467608
17	0x3ef41f44	0.47680104
18	0x3f0bbce7	0.5458512
19	0x3f06124c	0.5237167
20	0x3eed951b	0.4640282
21	0x3efaef71	0.49010804
22	0x3efec8b3	0.49762496
23	0x3eaf73b8	0.34267974
