dqn_model.pt (torch, 96980 bytes, 10 tensors)

fc1.weight f4 [128, 24]
0	0x3cba54fa	0.022745598
1	0x3d5f85bd	0.054570902
2	0xbd2ab0c4	-0.041672483
3	0xbe3314b1	-0.17488362
4	0x3e5fc781	0.21853448
5	0xbe38c7ab	-0.18044917
6	0xbdae396d	-0.08507047
7	0x3d9b1c06	0.075737044
8	0x3e61fc39	0.22068872
9	0xbddc45a3	-0.1075547
10	0xbd66ee67	-0.056379702
11	0x3e43d712	0.19125012
12	0x3da7cdee	0.08193575
13	0xbe79c550	-0.24391675
14	0x3de04ce6	0.10952167
15	0xbdd13f99	-0.102172084
16	0x3e01478d	0.1262495
17	0x3d47a168	0.048737913
18	0x3e0912a8	0.13386023
19	0x3de04656	0.109509155
20	0xbe09ee32	-0.1346977
21	0x3dae431e	0.08508895
22	0x3e388eaa	0.18023172
23	0xbe470153	-0.19434099
24	0x3da9b8a9	0.08287174
25	0xbb5af553	-0.0033410385
26	0xbd891c78	-0.06694883
27	0x3dc71772	0.09721269
28	0xbd530a90	-0.051523745
29	0xbe01fce4	-0.12694126
30	0x3df5721d	0.11984656
31	0x3e70cbbc	0.23515218
32	0x3d9c64e3	0.0763643
33	0xbc4c87d9	-0.0124835605
34	0x3dcabc1e	0.09899162
35	0xbcf68b72	-0.03009579
36	0xbde0810b	-0.10962113
37	0x3da3be35	0.079952635
38	0xbdc73ce6	-0.09728412
39	0x3d8d7fd7	0.06909149
40	0xbdc2b2d5	-0.09506766
41	0x3e71d93f	0.23618029
42	0xbd397a8f	-0.045282897
43	0x3e571c6c	0.21006936
44	0xbd9456d7	-0.07243126
45	0xbdd89fb1	-0.10577334
46	0x3c9ece07	0.01938535
47	0xbdd2555b	-0.102701865
48	0xbcbc74b3	-0.023004865
49	0x3ba0ed33	0.004911089
50	0xbd0780d4	-0.033081844
51	0x3d9f28fa	0.077714875
52	0x3e708cfd	0.23491283
53	0x3cec5c81	0.028852703
54	0x3d9c4d2e	0.07631908
55	0x3c95a50b	0.018267175
56	0x3d96f1e1	0.073703535
57	0xbd87e8b9	-0.06636185
58	0xbdeb8f37	-0.115019254
59	0x3d968dd2	0.07351269
60	0x3e0d5b57	0.13804375
61	0x3dcb8007	0.09936529
62	0xbe339c0e	-0.17539999
63	0x3d0d21cc	0.03445606
64	0x3e11846b	0.1421067
65	0xbd9fc3ed	-0.07801042
66	0x3e7bf38c	0.24604625
67	0xbe1a510f	-0.15069984
68	0xbd7578a7	-0.059929516
69	0xbe644559	-0.22292079
70	0x3cd4f9e7	0.025998069
71	0x3e2bb1a7	0.16766988
72	0x3dca41db	0.09875842
73	0x3df8b545	0.121439494
74	0x3ce6e7d4	0.028186716
75	0x3db560ae	0.08856331
76	0x3c8f3506	0.017481338
77	0x3def0f0a	0.1167279
78	0x3ddc0ae2	0.10744263
79	0x3deec2ce	0.1165825
80	0x3e0a86dc	0.13528007
81	0x3df32779	0.11872763
82	0x3d99db18	0.07512492
83	0x3dc46edf	0.095914595
84	0x3d041e8b	0.03225569
85	0x3d1abfcf	0.03778058
86	0x3d26388c	0.04058127
87	0x3d2f3df0	0.042783678
88	0x3d7865f1	0.060644094
89	0x3e2935c0	0.1652441
90	0x3daf8a7c	0.08571336
91	0x3cf4f386	0.029901277
92	0x3def2fb7	0.11679023
93	0x3ddd2ebb	0.10799929
94	0x3dcf5658	0.10123891
95	0x3dbe2de8	0.092861
96	0x3d446d16	0.047955595
97	0x3d3395d1	0.043844048
98	0x3ddb8d2d	0.107202865
99	0x3def8e56	0.1169707
100	0x3d870865	0.06593398
101	0x3e00e9ef	0.12589239
102	0x3e0e7681	0.13912393
103	0xbb91161d	-0.004427685
104	0x3cd58c3f	0.026067851
105	0x3d48e88e	0.049049906
106	0x3c249bb3	0.010046887
107	0x3d5debbf	0.054179903
108	0x3d99cf83	0.07510283
109	0x3bff839b	0.007797671
110	0x3e044790	0.12917924
111	0x3cf155a2	0.029459778
112	0x3e0465a0	0.12929392
113	0x3d1918bf	0.037377115
114	0x3e346bc6	0.17619237
115	0x3d9ee915	0.077593006
116	0x3d9ad004	0.07559207
117	0x3d8b6d84	0.06807998
118	0x3dfe8644	0.12427953
119	0x3dcc760e	0.09983455
120	0x3dba73e5	0.091041364
121	0x3dbe271c	0.09284803
122	0x3cb289db	0.02179425
123	0x3e24fccc	0.1611206
124	0x3df2e89b	0.11860772
125	0x3de15e9c	0.110043734
126	0x3dd7d4f2	0.10538663
127	0x3ca5f990	0.020260602
128	0x3db2d60f	0.08732235
129	0x3dbf2933	0.0933403
130	0x3df1528b	0.11783322
131	0x396b7cb5	0.00022457803
132	0x3da72631	0.08161581
133	0x3e0b3985	0.1359616
134	0x3e087f0e	0.13329718
135	0x3da18293	0.07886233
136	0x3d808239	0.06274838
137	0x3daae391	0.08344186
138	0x3df97aa4	0.12181595
139	0x3d9c599e	0.076342806
140	0x3dbfa90e	0.093584165
141	0x3d09d7a9	0.033652935
142	0x3c92a97c	0.017903082
143	0x3d8e59c3	0.069507144
144	0xbd47a115	-0.048737604
145	0xbdb37667	-0.08762818
146	0xbdc4c6e5	-0.096082486
147	0xbe0f80ae	-0.14013931
148	0xbe2140e0	-0.15747404
149	0x3e152334	0.1456421
150	0x3e58ca0a	0.21170822
151	0x3dc69943	0.09697201
152	0xbd892a27	-0.06697493
153	0x3e586262	0.2113128
154	0x396ae7a8	0.00022402278
155	0xbde39662	-0.111126676
156	0x3da4f12e	0.08053814
157	0xbde2ead3	-0.110799454
158	0xbdcd19ff	-0.10014724
159	0x3e1776d5	0.14791425
160	0xbdee9544	-0.11649564
161	0xbd9785c5	-0.073985614
162	0x3e27d450	0.16389585
163	0x3e6fc855	0.23416264
164	0xbd8f61d1	-0.07001079
165	0xbd890c6e	-0.06691824
166	0x3e583648	0.21114457
167	0x3e3628e2	0.17789033
168	0x3d9f7164	0.077852994
169	0xbd89ddfc	-0.06731793
170	0x3d02008d	0.031738807
171	0x3de1c15c	0.110232085
172	0x3c460ff4	0.012088764
173	0xbdf4b603	-0.119487785
174	0xbd9e2eab	-0.07723745
175	0xbe402d07	-0.18767177
176	0xbcac7b14	-0.021054782
177	0xbcd7333c	-0.026269548
178	0xbd2bea41	-0.04197145
179	0x3dbaef6e	0.09127699
180	0xbe4e7424	-0.20161492
181	0xbd71fff3	-0.059081983
182	0x3d0e5b34	0.034754947
183	0xbb8f902e	-0.004381201
184	0x3e09011a	0.13379326
185	0x3d8d91be	0.06912564
186	0x3e161ef7	0.1466025
187	0x3e30a2a6	0.17249545
188	0x3d4b87e3	0.04969014
189	0xbd6026ea	-0.05472461
190	0xbdb57958	-0.08861035
191	0xbcbb79ef	-0.02288529
192	0x3b37684e	0.0027985754
193	0xbd6aeac3	-0.057352792
194	0xbd522ae6	-0.051310442
195	0xbcc3cdd5	-0.02390186
196	0xbdcdadf9	-0.10042948
197	0x3da7d936	0.081957266
198	0x3df7e888	0.12104899
199	0x3d474700	0.048651695
200	0xbc8be832	-0.017078493
201	0x3d1f0189	0.038819823
202	0x3e031a53	0.1280301
203	0xbdec8534	-0.11548844
204	0xbd3e7cc1	-0.046505693
205	0x3da8c256	0.08240192
206	0xbb400abc	-0.0029303273
207	0x3cdf338f	0.027246265
208	0xbda537ee	-0.08067308
209	0xbd637cba	-0.05553887
210	0xbe15c95e	-0.14627597
211	0x3c8ef97f	0.017452953
212	0xbd5d4918	-0.054024786
213	0x3d42485c	0.04743229
214	0xbe593b6c	-0.21214074
215	0x3c32dad7	0.010916433
216	0x3dcb325a	0.09921713
217	0x3e037eff	0.12841414
218	0x3e107e3f	0.14110659
219	0x3e447f92	0.19189289
220	0x3d977c07	0.07396703
221	0xbc89e171	-0.016831132
222	0xbd1d053e	-0.038335077
223	0x3d9e4b7e	0.07729243
224	0x3dfcda53	0.123463295
225	0x3d8c58b9	0.0685286
226	0xbd012e02	-0.031538017
227	0xbbfa63d6	-0.007641296
228	0xbe094877	-0.1340655
229	0x3e2e5e9d	0.1702828
230	0xbe0f1a2a	-0.13974825
231	0xbdf507d0	-0.11964381
232	0x3e4628e5	0.19351538
233	0xbe2829e9	-0.16422237
234	0x3e66e1cb	0.2254707
235	0xbe49a0a3	-0.19690184
236	0xbdc6c7fa	-0.09706111
237	0xbe102a6d	-0.14078684
238	0x3e086ad1	0.13321997
239	0xbdc1d284	-0.09463981
240	0x3d43c6df	0.04779708
241	0x3dd770f4	0.10519591
242	0xbe07450d	-0.13209935
243	0xbe03fd5d	-0.12889619
244	0x3e0186d8	0.12649095
245	0xbcb72a1b	-0.022358945
246	0x3e49b85d	0.19699235
247	0x3d0589a2	0.03260196
248	0xbe29efbd	-0.16595359
249	0x3e3c04e1	0.18361236
250	0xbca5d107	-0.020241274
251	0x3db2b1e3	0.087253354
252	0x3ce79986	0.028271448
253	0x3d3ff58d	0.046865035
254	0xbe205735	-0.15658267
255	0x3d8c7025	0.06857327

fc1.bias f4 [128]
0	0xbda190e1	-0.078889616
1	0xbd57a36e	-0.052646093
2	0xbcb37783	-0.021907574
3	0xbee9b9fa	-0.456497
4	0xbece684b	-0.40313944
5	0xbec57e80	-0.38573074
6	0xbe082a99	-0.132975
7	0x3e672ccf	0.22575687
8	0x3ed59ddf	0.4172201
9	0xbdc5d8f3	-0.096605204
10	0xbc0892ab	-0.00833575
11	0x3d4f06bc	0.05054353
12	0x3ee98fc7	0.45617506
13	0xbe249c22	-0.16075185
14	0x3dc11805	0.094284095
15	0xbec3f8e9	-0.3827584
16	0xbdec676f	-0.11543166
17	0xbe2ab6e1	-0.16671325
18	0xbdf5cd8a	-0.12002094
19	0x3df06ab6	0.117391035
20	0xbe35db2e	-0.17759392
21	0xbe74f0af	-0.23919939
22	0x3e57deda	0.21081105
23	0xbd03ad88	-0.032147914
24	0xbdde2bd7	-0.108482055
25	0xbe7b87a5	-0.24563463
26	0xbdcfa7e2	-0.10139443
27	0xbe33a78b	-0.17544381
28	0xbdb44214	-0.08801666
29	0xbdd6b113	-0.10482993
30	0x3ed02e30	0.40660238
31	0x3ee6ba1b	0.45063862
32	0xbeb9b36a	-0.36269695
33	0xbc9bfaef	-0.019040553
34	0xbec44587	-0.38334295
35	0x3da7477a	0.0816793
36	0xbea6d0b2	-0.32581097
37	0x3f193e2c	0.5986049
38	0x3eea9bc8	0.45821977
39	0x3f1e97b8	0.61950254
40	0x3e32d36b	0.17463462
41	0x3d84aa42	0.064777866
42	0x3de40e7d	0.11135576
43	0xbeb7c00c	-0.35888708
44	0xbe07cd57	-0.13261925
45	0x3cc79335	0.024362186
46	0xbb9cebdd	-0.0047888593
47	0x3d5c4a6c	0.05378191
48	0xbe07aa3e	-0.13248536
49	0xbda79fb3	-0.08184757
50	0x3df29c81	0.11846257
51	0x3e45891a	0.19290581
52	0x3e8e523a	0.2779711
53	0x3de5fe73	0.11230173
54	0x3f0494b4	0.517894
55	0x3e7e3543	0.24825005
56	0xbe278d7f	-0.1636257
57	0xbd5f02b1	-0.054445926
58	0x3ec1c3e1	0.37844756
59	0x3e2cb9bd	0.16867729
60	0x3e17a488	0.14808857
61	0xbe4d27a3	-0.20034651
62	0x3f03d5f1	0.51498324
63	0x3e8c6702	0.2742234
64	0x3c93dbcb	0.018049141
65	0xbe7db291	-0.24775149
66	0xbdcf919b	-0.10135194
67	0x3e9c46c4	0.3052274
68	0x3d9cc9f2	0.076557055
69	0xbd8efc54	-0.069817215
70	0xbe60e043	-0.21960549
71	0xbdab8dcd	-0.08376656
72	0xbe138ed3	-0.14409952
73	0x3dfe0746	0.12403731
74	0xbe543022	-0.20721486
75	0xbcd038da	-0.025417734
76	0xbe9562bc	-0.2917689
77	0x3e642b99	0.22282256
78	0xbe5054e5	-0.20344885
79	0xbe8a0b46	-0.26961726
80	0x3ea1db1d	0.31612483
81	0xbe440844	-0.19143778
82	0xbd79d7fd	-0.060996998
83	0xbde0c7c0	-0.10975599
84	0x3e3c1f40	0.18371296
85	0x3ebadd5b	0.36497006
86	0xbe43205d	-0.19055314
87	0xbd86e7ea	-0.06587203
88	0x3de02a45	0.10945562
89	0x3bd2ad20	0.0064293295
90	0xbcb8918b	-0.022530338
91	0xbe871707	-0.26384756
92	0xbe1575fe	-0.14595792
93	0xbe278a34	-0.16361314
94	0x3d6ffb92	0.058589526
95	0xbe1dedf9	-0.1542281
96	0x3e2f280c	0.1710512
97	0xbec190b4	-0.37805712
98	0x3d7ff038	0.06248495
99	0x3d9e27ed	0.07722459
100	0xbe858438	-0.26077437
101	0xbdd8212c	-0.10553202
102	0x3d32af6f	0.043624338
103	0x3e04b5f3	0.12960033
104	0xbcffd4fa	-0.031229485
105	0xbce4aa96	-0.027913373
106	0x3ead2c4d	0.3382286
107	0xbe4e65d7	-0.20156036
108	0xbd443d25	-0.047909874
109	0x3e458614	0.19289428
110	0xbe592353	-0.21204881
111	0xbc2b4b8f	-0.010455026
112	0x3eeeeb98	0.4666412
113	0xbdd9f337	-0.10642093
114	0xbe25eaad	-0.16202803
115	0xbdc8b743	-0.098005794
116	0x3d9718d4	0.073777825
117	0xbe26fac4	-0.16306597
118	0x3e8409be	0.25788683
119	0x3d8db48b	0.069192015
120	0x3f14f1e3	0.5818159
121	0xbe908947	-0.28229734
122	0xbe267503	-0.16255574
123	0xbe04918c	-0.12946147
124	0xbd9f814a	-0.07788332
125	0xbdae67fe	-0.08515929
126	0x3f04786e	0.5174626
127	0xbe6a5b56	-0.22886404

bn1.weight f4 [128]
0	0x3f8141e5	1.0098234
1	0x3f8f9c90	1.1219654
2	0x3f7857e7	0.9700913
3	0x3f2665cd	0.64999086
4	0x3f334b99	0.7003723
5	0x3f203ad7	0.6258978
6	0x3f848117	1.0351895
7	0x3f8f04ed	1.1173378
8	0x3f989ed0	1.1923466
9	0x3f881546	1.0631492
10	0x3f928e7c	1.1449733
11	0x3f57f2ee	0.84355056
12	0x3fa7d1e6	1.3110931
13	0x3f8b06fc	1.0861506
14	0x3f87453a	1.0568001
15	0x3f341bc5	0.7035487
16	0x3f1df4f7	0.6170191
17	0x3f529272	0.8225471
18	0x3f6b03f4	0.91802907
19	0x3f9033f4	1.1265855
20	0x3f9263e0	1.143673
21	0x3f373390	0.71563053
22	0x3f7dff06	0.9921726
23	0x3f910cc2	1.1332018
24	0x3f789a1b	0.97110146
25	0x3f2fec51	0.68719965
26	0x3f5be22d	0.8589199
27	0x3f801c67	1.0008668
28	0x3f7de3c3	0.9917566
29	0x3f8b79f7	1.0896596
30	0x3f949727	1.1608628
31	0x3f88cc88	1.0687418
32	0x3f7e5b35	0.9935792
33	0x3f881ac9	1.0633174
34	0x3f30c29d	0.69046956
35	0x3f8f0714	1.1174035
36	0x3f5b0a57	0.8556265
37	0x40325ab7	2.7867868
38	0x3f9ce3ba	1.2256997
39	0x4039aa0e	2.9010043
40	0x3f706145	0.9389842
41	0x3f791532	0.97297966
42	0x3f7053d7	0.9387793
43	0x3f327c66	0.69721067
44	0x3f8f14b4	1.1178193
45	0x3f87617e	1.0576627
46	0x3f7da8c4	0.9908564
47	0x3f370191	0.71486765
48	0x3f8977a2	1.0739634
49	0x3f8f9e50	1.1220188
50	0x3f663a41	0.8993264
51	0x3f8ebd48	1.1151514
52	0x3f901bcb	1.1258482
53	0x3f8b2812	1.0871603
54	0x3fa3ffed	1.2812477
55	0x3f85ea97	1.0462216
56	0x3f444272	0.7666389
57	0x3f65ca2b	0.8976161
58	0x3fa3de13	1.2802147
59	0x3f60ef17	0.8786482
60	0x3f97448a	1.1817791
61	0x3f624d44	0.8839915
62	0x3fa1a93d	1.2629772
63	0x3f989c63	1.1922725
64	0x3f81f481	1.0152742
65	0x3f545cbd	0.8295401
66	0x3f8525be	1.0402143
67	0x3f91b30e	1.1382768
68	0x3f8a2943	1.0793842
69	0x3f34d09d	0.7063082
70	0x3f0f273f	0.5591926
71	0x3f83b20c	1.028871
72	0x3f89f211	1.0776998
73	0x3f87750c	1.0582595
74	0x3f68cca0	0.9093723
75	0x3f83550e	1.0260332
76	0x3f6d3e40	0.9267311
77	0x3f8421e8	1.0322847
78	0x3f8cda71	1.1004163
79	0x3f5f801b	0.8730485
80	0x3f8df763	1.1091121
81	0x3f889a63	1.0672115
82	0x3f937850	1.1521091
83	0x3f8fe111	1.124056
84	0x3f61b526	0.88167036
85	0x3f8e6e5d	1.112743
86	0x3f27502c	0.6535671
87	0x3f73da7f	0.95255274
88	0x3f47fd08	0.7812047
89	0x3f8a4996	1.0803707
90	0x3f374127	0.7158379
91	0x3f73e01a	0.95263827
92	0x3f8edc55	1.116099
93	0x3f4d11c8	0.8010526
94	0x3f83ceab	1.0297445
95	0x3f872a81	1.0559846
96	0x3f95d827	1.170659
97	0x3f7288db	0.94740075
98	0x3f711b6a	0.94182456
99	0x3f9705b1	1.1798612
100	0x3f52a94a	0.82289565
101	0x3f78c0f6	0.97169435
102	0x3f712723	0.9420034
103	0x3f93eed7	1.1557263
104	0x3f8b0a3b	1.0862497
105	0x3f92696d	1.1438423
106	0x3f8a7968	1.08183
107	0x3f765139	0.96217686
108	0x3f7e06e7	0.9922928
109	0x3f884a67	1.0647706
110	0x3f8834ae	1.0641077
111	0x3f7f07a5	0.9962104
112	0x3f944a40	1.1585159
113	0x3f8fcbaa	1.1234028
114	0x3f871dd1	1.0555974
115	0x3f92a454	1.1456399
116	0x3f56fdef	0.8398122
117	0x3f088a59	0.533361
118	0x3f83a652	1.0285132
119	0x3f5f8865	0.87317497
120	0x4008faa1	2.1402972
121	0x3f32d29d	0.6985262
122	0x3f223a19	0.633699
123	0x3f8bef74	1.093245
124	0x3f0b9bc0	0.5453453
125	0x3f859766	1.0436828
126	0x3fb46ace	1.4095094
127	0x3f83993f	1.0281142

bn1.bias f4 [128]
0	0xbde9fc9c	-0.114251345
1	0xbdfe02e0	-0.12402892
2	0xbe508263	-0.20362239
3	0xbef1e9c6	-0.47248667
4	0xbec3babc	-0.38228405
5	0xbf05b5a5	-0.5223029
6	0xbb2670cb	-0.002539682
7	0x3dbd227c	0.09235093
8	0x3e0df8b4	0.13864404
9	0xbe508d1f	-0.20366333
10	0xbdff2116	-0.124574825
11	0xbe658f00	-0.22417831
12	0x3e815925	0.25263324
13	0xbde4bbf7	-0.11168664
14	0xbdfe40bf	-0.12414693
15	0xbec2fe0d	-0.3808445
16	0xbf08cd87	-0.5343861
17	0xbeab34a0	-0.33438587
18	0xbe95c70e	-0.2925343
19	0xbc78cee4	-0.015186045
20	0xbe3aff10	-0.18261361
21	0xbeae49b3	-0.34040603
22	0xbd958f75	-0.07302753
23	0xbcecd5e7	-0.02891059
24	0xbe294df9	-0.1653365
25	0xbecf0675	-0.40434614
26	0xbe912d09	-0.28354672
27	0xbe620a3b	-0.22074215
28	0xbda18d07	-0.07888227
29	0xbd41e039	-0.047332976
30	0x3e309bf6	0.17246994
31	0x3d915d3c	0.07097861
32	0xbe97b1a6	-0.29627723
33	0xbe178dd4	-0.14800197
34	0xbebb9803	-0.36639413
35	0xbdaaeb60	-0.083456755
36	0xbe9b7b7e	-0.30367655
37	0x3e82ecd7	0.2557132
38	0x3e5a8243	0.21338753
39	0x3e80f19b	0.2518433
40	0xbe285fd6	-0.16442809
41	0xbe1f1b70	-0.1553781
42	0xbe726b7a	-0.23673812
43	0xbec5766e	-0.38566917
44	0xbe1677e0	-0.14694166
45	0xbe17e4b5	-0.14833339
46	0xbe020973	-0.12698917
47	0xbeaae562	-0.3337813
48	0xbd566ec4	-0.052351728
49	0xbdc9e9e7	-0.098590665
50	0xbe3d6395	-0.18495019
51	0x3c60bfad	0.013717574
52	0x3e3c596c	0.18393487
53	0x3dc4d584	0.096110374
54	0x3e439479	0.19099607
55	0x3c5635a8	0.013074316
56	0xbea0714e	-0.31336445
57	0xbe97e357	-0.29665634
58	0x3ea4cc13	0.32186946
59	0xbe8672df	-0.26259515
60	0x3e5272ce	0.20551607
61	0xbeba608d	-0.36401787
62	0x3e42a8f3	0.19009762
63	0x3e3bd2db	0.18342154
64	0x3d25bc87	0.040462997
65	0xbeb19718	-0.34685588
66	0xbcb870a1	-0.022514643
67	0xbbf7b423	-0.0075593158
68	0x3d6e718f	0.058213767
69	0xbee8f58c	-0.45499837
70	0xbf2549ac	-0.6456554
71	0xbd8a71a5	-0.06759957
72	0xbe37125d	-0.17878099
73	0xbe10d21a	-0.14142647
74	0xbe82d70e	-0.255547
75	0xbe377fb3	-0.17919807
76	0xbe9cd6d7	-0.3063266
77	0xbdbc60e2	-0.091981664
78	0xbdb2f690	-0.08738434
79	0xbe724f07	-0.23662959
80	0x3e2aaea7	0.16668187
81	0xbdb48c20	-0.08815789
82	0xba660640	-0.0008774735
83	0xbd36839a	-0.0445591
84	0xbe5bba15	-0.21457703
85	0x3e02ed2b	0.12785785
86	0xbefd4675	-0.49467817
87	0xbe824c5e	-0.2544889
88	0xbeb79da8	-0.3586247
89	0xbc80c59f	-0.015719233
90	0xbee8807e	-0.45410532
91	0xbe3d9ce8	-0.18516886
92	0xbcb88c37	-0.022527797
93	0xbeaa3505	-0.33243576
94	0x3d8c3f1a	0.06847973
95	0xbdb91391	-0.09036935
96	0x3b9f4980	0.004861057
97	0xbe8ad28b	-0.27113757
98	0xbe86132f	-0.2618651
99	0x3ddd6177	0.108096056
100	0xbe9c1947	-0.30488035
101	0xbde71d3d	-0.11284874
102	0xbe81617e	-0.25269693
103	0xbd0219dd	-0.031762946
104	0xbdf9ebf3	-0.12203207
105	0xbd05d77e	-0.032676212
106	0x3d0bad46	0.034100793
107	0xbe94c485	-0.29056183
108	0xbe12e643	-0.1434565
109	0xbd9f31dd	-0.077731825
110	0xbe1152be	-0.1419172
111	0xbd21d66d	-0.039511133
112	0x3da3717d	0.079806305
113	0xbdda9a5f	-0.10673975
114	0xbccfa79f	-0.025348483
115	0xbc8bef81	-0.017081978
116	0xbe40a716	-0.18813738
117	0xbf277d0e	-0.65425193
118	0xbdbeea47	-0.093220286
119	0xbe8970d2	-0.26843888
120	0x3e8c6505	0.27420822
121	0xbec3879e	-0.38189405
122	0xbef80adb	-0.48445782
123	0xbdcf92d8	-0.1013543
124	0xbf15b8ac	-0.5848491
125	0xbe693d01	-0.22777177
126	0x3e9970d9	0.29968908
127	0xbe1c393d	-0.1525621

fc2.weight f4 [128, 128]
0	0x3c0d664a	0.008630345
1	0x3dfbce95	0.12295262
2	0x3d87639e	0.06610797
3	0xbe1f12f3	-0.15534572
4	0xbdbbf00a	-0.09176643
5	0xbdb4a1ea	-0.08819945
6	0x3dfda285	0.12384514
7	0x3e355fdf	0.17712353
8	0x3de65a6e	0.11247717
9	0x3d905771	0.07047928
10	0x3db54b47	0.08852249
11	0x3cc978b5	0.02459369
12	0x3ecb9aa5	0.39766422
13	0xbc1fc0b6	-0.009750536
14	0x3cea94c1	0.028635385
15	0xbde1e97d	-0.110308625
16	0xbd0a48f3	-0.033760976
17	0xbca0b91c	-0.019619517
18	0xbbc1f01b	-0.0059185154
19	0x3e7ae887	0.24502765
20	0x3d02b469	0.031910334
21	0xbe03e255	-0.12879308
22	0x3dc70bb0	0.09719026
23	0x3db54054	0.0885016
24	0x3c8c4a54	0.017125286
25	0xbdb39b50	-0.08769858
26	0x3d77c13d	0.06048702
27	0xbdd73ab7	-0.10509246
28	0x3c627a74	0.01382314
29	0x3e045443	0.12922768
30	0x3e01c0bb	0.12671177
31	0x3e222759	0.15835322
32	0xbe0c87ab	-0.13723628
33	0x3dac3c1a	0.08409901
34	0xbdcc1048	-0.09964043
35	0x3e0991ea	0.13434568
36	0xbdd0f9b3	-0.10203876
37	0x3f9d2429	1.227666
38	0x3e8bd6bf	0.27312276
39	0x3fa895f6	1.3170764
40	0x3db4efb4	0.08834782
41	0x3db5641b	0.08856984
42	0x3ddc95b5	0.10770742
43	0xbd9ce6c3	-0.07661202
44	0x3d46f02d	0.048568893
45	0x3e09240b	0.13392656
46	0x3d7c6b09	0.061625514
47	0xbd437e12	-0.047727652
48	0xbc335f84	-0.010948066
49	0x3d969325	0.07352284
50	0x3cab4bb9	0.02091013
51	0x3e610006	0.21972665
52	0x3e05e891	0.13076998
53	0x3cf62429	0.03004654
54	0x3ea2b052	0.31775147
55	0x3dfaf567	0.12253838
56	0xbd1b7e3a	-0.037962176
57	0x3ca80e00	0.020514488
58	0x3eadd07c	0.33948123
59	0x3d4e653e	0.05038952
60	0x3e081ebb	0.13292973
61	0xbd5aaffd	-0.05339049
62	0x3e5dae5b	0.21648543
63	0x3e504147	0.20337401
64	0xbd5bd998	-0.05367431
65	0xbd820a54	-0.06349626
66	0xbc9851d4	-0.018593706
67	0x3e52a28d	0.2056982
68	0x3d9b6380	0.075873375
69	0xbd894528	-0.06702644
70	0xbdff81e3	-0.12475946
71	0x3d61e2b8	0.055147856
72	0x3de4b4f4	0.111673266
73	0x3d76eca9	0.06028429
74	0xbd6d4fbf	-0.05793738
75	0x3b5a8fcc	0.003334987
76	0xbdc35f3f	-0.09539651
77	0x3d54ec90	0.051983416
78	0x3dab97e5	0.08378581
79	0xbcc2b5ce	-0.023768332
80	0x3e8da17d	0.27662268
81	0x3defc32e	0.117071494
82	0x3e52e382	0.205946
83	0x3df5ace2	0.119958654
84	0x3ca01b28	0.0195442
85	0x3e3c207e	0.1837177
86	0xbddf15f9	-0.10892863
87	0x3d3dca77	0.046335664
88	0x3d3089a3	0.04310001
89	0xbb72ca8e	-0.0037047002
90	0xbd199e0c	-0.03750424
91	0xbd62a230	-0.055330455
92	0x3dd7be9c	0.10534403
93	0xbd21e72b	-0.0395271
94	0x3dd35d81	0.10320569
95	0x3d1c656f	0.038182672
96	0x3e85f226	0.26161307
97	0xbdacb4b5	-0.08432905
98	0x3dea1c70	0.11431205
99	0x3e539992	0.20664051
100	0xbda874da	-0.08225413
101	0x3d562665	0.05228271
102	0x3c5233dc	0.012829747
103	0x3e3a203a	0.18176356
104	0xbc17dd52	-0.0092690755
105	0x3d300dd8	0.042981952
106	0x3e495c0a	0.19664016
107	0xbb00e808	-0.0019669551
108	0x3dc2da79	0.095143266
109	0x3dea143e	0.11429642
110	0xbbe73366	-0.0070556877
111	0x3c9ae26e	0.018906798
112	0x3e878b57	0.26473495
113	0x3dcd7d50	0.10033667
114	0x3d4f70e1	0.05064476
115	0x3e54265c	0.20717758
116	0xbcf3c327	-0.029756142
117	0xbd9fd68a	-0.07804592
118	0x3dd7a18d	0.1052886
119	0xbd1a254d	-0.03763323
120	0x3f5c5808	0.86071825
121	0xbdb5c2e4	-0.08875063
122	0xbdef55d1	-0.1168629
123	0x3e24b6d0	0.16085362
124	0xbd88f553	-0.06687417
125	0x3da84304	0.08215907
126	0x3ebd405b	0.36963162
127	0xbc57bb6e	-0.013167245
128	0x3d3c4a16	0.04596909
129	0x3d872df2	0.0660056
130	0x3cdafda9	0.026732283
131	0xbbf5b7cd	-0.0074987174
132	0x3c5b937a	0.01340186
133	0x3cb48ea4	0.022040673
134	0xbd0a000a	-0.033691444
135	0x3d55e1de	0.052217357
136	0x3ddca599	0.10773773
137	0x3d8ee9bf	0.06978177
138	0xbe188825	-0.14895685
139	0x3c2e0b53	0.010622817
140	0xbcf89b91	-0.030347617
141	0xbdc9e62b	-0.09858354
142	0xbdef3d7b	-0.11681648
143	0x3bf7f14e	0.0075666076
144	0xbcd33a10	-0.025784522
145	0x3ca8034b	0.020509383
146	0x3c9007fb	0.01758193
147	0xbd5f700a	-0.05455021
148	0xbcd70844	-0.026249059
149	0x3d5a53b1	0.05330247
150	0x3c06dc66	0.008231258
151	0xbd723e9d	-0.059141744
152	0xbe128bef	-0.14311193
153	0x3c821026	0.01587684
154	0x3d9bbaa9	0.07603962
155	0x3c889a45	0.016675124
156	0xbe0e5cd5	-0.139026
157	0x3c7ab343	0.015301528
158	0xbce305ae	-0.02771267
159	0x3d2ba8a7	0.041908886
160	0x3d8edf6a	0.069762066
161	0xbd8c8962	-0.06862141
162	0x3cbef334	0.023309328
163	0xbd96105e	-0.073273405
164	0xbc817a39	-0.01580535
165	0x3aa7d4fd	0.0012804564
166	0x3de85f10	0.11346257
167	0x3cbd4ee1	0.023108901
168	0x3d38840e	0.045047812
169	0x3d20a38e	0.039218478
170	0xbb9664fd	-0.0045896755
171	0x3c40150c	0.011723768
172	0xbdd4cc64	-0.10390547
173	0xbdcd8ebf	-0.10036992
174	0x3d7b8bc0	0.061412573
175	0xbd818ff3	-0.06326284
176	0x3c86d7f6	0.0164604
177	0x3d19ca25	0.037546296
178	0xbd1828c6	-0.03714826
179	0xbd242b81	-0.04008055
180	0xbd316b45	-0.04331519
181	0xbd473e77	-0.048643555
182	0x3bbe9a15	0.005816708
183	0xbc18695e	-0.009302465
184	0x3c143214	0.009045143
185	0x3c931239	0.017953025
186	0xbd2d2bcd	-0.0422781
187	0x3d45545e	0.048176162
188	0xbdce5632	-0.10075034
189	0xbd5f0f86	-0.054458164
190	0xbb5c9185	-0.0033656072
191	0x3e1682df	0.14698361
192	0xbcccfa67	-0.025021745
193	0x3d327abe	0.043574087
194	0x3da05c05	0.07830051
195	0x3caecf69	0.021339135
196	0xbe2a418e	-0.1662657
197	0x3bc2acaf	0.0059409956
198	0x3cb8ae51	0.022544058
199	0x3cd5ed95	0.026114265
200	0x3d7a06f9	0.061041806
201	0x3cccc625	0.024996826
202	0x3b60b9b1	0.0034290368
203	0xbd66b323	-0.05632318
204	0xbcb5051c	-0.022097163
205	0x3de0740c	0.10959634
206	0xbd4a925e	-0.049455993
207	0xbe1f1f27	-0.15539227
208	0xbcc36998	-0.023854062
209	0x3d7a70d4	0.061142758
210	0xbd76d0ad	-0.060257602
211	0xbdc528b2	-0.09626903
212	0x3dc26091	0.09491075
213	0x3cc3d5aa	0.023905594
214	0x3d0a081e	0.033699147
215	0x3db75ac3	0.08952858
216	0x3cb86416	0.022508662
217	0xbd888e08	-0.06667715
218	0x3d86c4ea	0.06580527
219	0x3d32bf5a	0.04363952
220	0xbd21add8	-0.03947243
221	0xbdc2cbf5	-0.09511558
222	0x3b8a0d7d	0.0042130337
223	0xbe10eac1	-0.14152052
224	0x3dc15274	0.09439555
225	0x3c8a5cb7	0.016889913
226	0x3d99143a	0.07474561
227	0xbd2e9668	-0.042623907
228	0x3d3f85ca	0.04675845
229	0xbda291fe	-0.07938002
230	0x3c843d62	0.01614255
231	0x3c296222	0.010338338
232	0x3d8bea06	0.06831746
233	0xbdba18c8	-0.09086758
234	0x3cd56d30	0.026053041
235	0x3dbfecfb	0.09371372
236	0x3affad49	0.0019506599
237	0xbd03bb62	-0.032161124
238	0x3cbaab1b	0.022786668
239	0xbb14b532	-0.0022691009
240	0x3dcedbe6	0.10100536
241	0xbc9b488b	-0.01895549
242	0x3c080b2e	0.008303447
243	0xbd84be6b	-0.06481632
244	0xbda062d0	-0.07831347
245	0x3c10969a	0.008824969
246	0xbba1bda3	-0.0049359365
247	0x3b06fb58	0.002059659
248	0x3aed7942	0.0018117803
249	0x3c5cf7f0	0.013486847
250	0x3d2f28b8	0.04276344
251	0xbcd7ce6a	-0.026343543
252	0x3d2f5bf5	0.042812306
253	0xbb4769f7	-0.003042815
254	0x3d3cbecd	0.0460804
255	0x3d86c7ae	0.06581055

fc2.bias f4 [128]
0	0xbe4648f5	-0.19363768
1	0x3c8dfccd	0.017332459
2	0xbb9f1442	-0.00485471
3	0x3dc49de8	0.09600431
4	0xbc596b74	-0.013270248
5	0xbe0ce2c5	-0.1375838
6	0x3b847b40	0.004043013
7	0xbd00b06b	-0.031418245
8	0xbbb3aaa6	-0.0054829894
9	0xbc0906b2	-0.008363413
10	0x3d2760e3	0.040863883
11	0xbd620f6d	-0.055190492
12	0x3c407d95	0.011748691
13	0x3a33cc4c	0.0006858751
14	0x3c91ab30	0.017781824
15	0x3cb87bbb	0.022519937
16	0xbd6f4e10	-0.058424056
17	0xbdb39822	-0.087692514
18	0x3debd43d	0.115150906
19	0xbd076aa7	-0.033060696
20	0x3d680ba1	0.056651715
21	0x3dce5b8f	0.10076057
22	0xbe12d544	-0.14339167
23	0x3d432b54	0.047648743
24	0x3d84a84b	0.06477412
25	0x3d8c5993	0.068530224
26	0x39284de3	0.00016050744
27	0x3c7683f8	0.015046112
28	0x3dd7ca98	0.105366886
29	0xbdaf02a8	-0.085454285
30	0x3d9184f3	0.07105436
31	0xbd0f3233	-0.034959983
32	0xbd18668c	-0.03720717
33	0x3d291ef7	0.041289296
34	0x3dee82ba	0.11646028
35	0x3d478638	0.048711985
36	0xbc398cda	-0.011325086
37	0x3d87de20	0.06634164
38	0xba550fc3	-0.0008127654
39	0x3d815021	0.063141115
40	0xbcbcde3d	-0.02305519
41	0x3c6c1295	0.014408727
42	0x3c2158eb	0.00984786
43	0xbdbdcba3	-0.09267356
44	0xbcc18d0f	-0.023626832
45	0xbd4e8a79	-0.050425027
46	0xbd58637e	-0.05282926
47	0xbcdb75bb	-0.026789537
48	0x3d369158	0.044572204
49	0x3d5fa5c9	0.054601464
50	0x3cf46500	0.029833317
51	0xbb9bdf2e	-0.0047568297
52	0xbc059b0f	-0.008154645
53	0x3cee83b7	0.02911554
54	0xbc328479	-0.010895842
55	0x3d8ab0c0	0.06771994
56	0xbd1ba372	-0.03799767
57	0x3d3cb0bf	0.046066996
58	0xbc4b8629	-0.012422123
59	0x3d80dce2	0.0629213
60	0x3def9a60	0.116993666
61	0xbda06921	-0.07832552
62	0xbb2e10f8	-0.0026560407
63	0xbe8c4194	-0.27393782
64	0x3dceef3a	0.101042226
65	0xbd94453a	-0.072397664
66	0x3cfbfe7c	0.030760996
67	0x3ab8da2a	0.0014103104
68	0x3c32cf14	0.010913629
69	0x3d6e91b0	0.058244407
70	0x3d880b5a	0.0664279
71	0x3dcc32a4	0.099705964
72	0x3d840e29	0.06448013
73	0x3a36bd27	0.0006970935
74	0xbdb5c1e7	-0.088748746
75	0x3ce025ac	0.027361713
76	0x3d7fb851	0.062431637
77	0xbc0546f2	-0.00813459
78	0x3d02b7db	0.03191362
79	0x3dea1559	0.11429853
80	0xbbe100b0	-0.006866537
81	0x3daeebf3	0.085410975
82	0x3e0c6cfb	0.13713448
83	0xbe3e2dec	-0.18572205
84	0x3d3ae73b	0.045630675
85	0x3e13b97a	0.14426222
86	0xbd55c6d2	-0.052191563
87	0x3d2a55c7	0.04158571
88	0x3d1b2a29	0.037882004
89	0xbd123b52	-0.035701104
90	0xbd8f06ad	-0.06983695
91	0x3d1e8402	0.03870011
92	0x3c5b4b2c	0.013384622
93	0x3be62c01	0.0070242886
94	0x3e2559a8	0.16147482
95	0x3d81478f	0.06312477
96	0x3db18336	0.086676046
97	0x3e1a6ea2	0.15081266
98	0x3de0ab69	0.10970194
99	0xbcd8b91d	-0.026455456
100	0x3d6136c8	0.054983884
101	0x3d9c1b95	0.07622448
102	0x3cda6e13	0.026663816
103	0xbdc456f1	-0.09586895
104	0x3d7fa658	0.062414497
105	0x3c209b4a	0.009802649
106	0xbac4a564	-0.0015002904
107	0x3cbd621f	0.023118077
108	0x3ca81ee5	0.020522544
109	0x3d1010de	0.035172336
110	0x3c49d98b	0.012319933
111	0x3c5bda2e	0.013418717
112	0x3ca50e58	0.020148441
113	0x3c9659ec	0.018353425
114	0xbd97153e	-0.073770985
115	0xbcdd2690	-0.026995927
116	0xbd715af8	-0.058924645
117	0x3df4ebe6	0.119590566
118	0x3d5af85d	0.053459514
119	0x3ccc1305	0.024911413
120	0xbd8c098f	-0.06837761
121	0xbd6664e3	-0.056248557
122	0x3ccfe295	0.025376597
123	0x3a5c099f	0.00083937676
124	0x3d249fd6	0.040191494
125	0xbe74f64a	-0.23922077
126	0x3cb66e52	0.022269402
127	0x3d80554b	0.06266268

bn2.weight f4 [128]
0	0x3f467e11	0.7753611
1	0x3fcd9ab4	1.6062837
2	0x3fcdecea	1.6087925
3	0x3fd4b9f9	1.6619254
4	0x3f9d8002	1.230469
5	0x3f444fb1	0.766841
6	0x3fdfd20b	1.7485975
7	0x3fd2a0dc	1.645534
8	0x3fe4376e	1.7829416
9	0x3fdc0367	1.7188538
10	0x3fd9ca9e	1.7014959
11	0x3fdcccdd	1.7250019
12	0x3fd8666b	1.6906255
13	0x3fe722c8	1.8057489
14	0x3ff1a501	1.887848
15	0x3fd9d4ee	1.7018106
16	0x3fddcb99	1.7327758
17	0x3fe8dd8b	1.819261
18	0x3fce2353	1.610453
19	0x3fe8f040	1.8198318
20	0x3fea9b85	1.8328711
21	0x3fb48813	1.4104027
22	0x3f68c354	0.9092305
23	0x3fe11d3e	1.7587049
24	0x3f72bba1	0.9481755
25	0x3fb151dc	1.3853106
26	0x3fccf78b	1.6013044
27	0x3fc8758d	1.5660874
28	0x3fc0e76c	1.5070624
29	0x3fe415cd	1.7819153
30	0x3fca1ef9	1.5790702
31	0x3fd14d5d	1.6351734
32	0x3fd0a079	1.6298972
33	0x3fdbac2e	1.716192
34	0x3fc5202a	1.5400441
35	0x3fd72514	1.680819
36	0x3fcf2c99	1.6185485
37	0x3f5d96e5	0.8655837
38	0x3fe718a3	1.8054394
39	0x3fd51821	1.6647989
40	0x3fe461dd	1.7842366
41	0x3fdb9b36	1.7156742
42	0x3fe23bb9	1.7674476
43	0x3fe26327	1.7686509
44	0x3fd481d6	1.6602123
45	0x3fede249	1.8584682
46	0x3fde2803	1.7355961
47	0x3f86f7e1	1.0544397
48	0x3fe19305	1.7622992
49	0x3fc838ab	1.5642294
50	0x3fe0df18	1.7568083
51	0x3fce45c8	1.6115046
52	0x3fb44f37	1.4086674
53	0x3fd1a874	1.6379533
54	0x3fe724d5	1.8058115
55	0x3fdabe15	1.7089258
56	0x3fd0b6f6	1.6305835
57	0x3fcecb56	1.6155803
58	0x3ff23107	1.8921212
59	0x3fe441cd	1.7832581
60	0x3fd04cd0	1.6273441
61	0x3fe335d7	1.7750806
62	0x3fe227e2	1.7668421
63	0x3f49d69f	0.7884311
64	0x3fcf7a5d	1.6209217
65	0x3f4a7ff1	0.79101473
66	0x3fd8f1a5	1.6948744
67	0x3fc91963	1.5710872
68	0x3fec7131	1.8472043
69	0x3fdf22df	1.7432517
70	0x3fdc2ec1	1.7201768
71	0x3fea44cd	1.8302246
72	0x3fc3161c	1.5241122
73	0x3fe7a8b3	1.8098358
74	0x3fe92ac4	1.8216176
75	0x3fe3f821	1.7810098
76	0x3ff4131b	1.906833
77	0x3fdd34a8	1.7281694
78	0x3fd96e3c	1.6986766
79	0x3fe1093e	1.7580945
80	0x3fd4ef90	1.6635609
81	0x3fdc955d	1.7233082
82	0x3fbbf9ba	1.4685585
83	0x3f50b24c	0.8152206
84	0x3fbb5c75	1.4637591
85	0x3fb9eb84	1.4524999
86	0x3fe91fc1	1.8212816
87	0x3fa59ac7	1.2937859
88	0x3fdd2a32	1.7278502
89	0x3f6f1a24	0.9339926
90	0x3fd98163	1.6992611
91	0x3fe7059d	1.8048588
92	0x3fd9a38e	1.7003038
93	0x3ff41a41	1.9070512
94	0x3f972019	1.180667
95	0x3fe09f1a	1.7548554
96	0x3fd2f31a	1.6480439
97	0x3f8e4b4d	1.111673
98	0x3fdacf21	1.7094461
99	0x3fc6f0bb	1.5542215
100	0x3fb2caee	1.3968179
101	0x3fd8af09	1.6928416
102	0x3fd6dd0f	1.6786212
103	0x3f7246ef	0.94639486
104	0x3f99b969	1.2009708
105	0x3fd8c897	1.6936215
106	0x3fe1d149	1.7641994
107	0x3ff68e39	1.9262153
108	0x3fcceb5b	1.6009325
109	0x3fdd76fd	1.7301937
110	0x3fd016ee	1.6256998
111	0x3fc8abfe	1.5677488
112	0x3fed9f41	1.8564225
113	0x3fd26a2c	1.6438651
114	0x3feb7e6d	1.8397957
115	0x3fc7e87d	1.5617825
116	0x3fe15979	1.760543
117	0x3f9f6472	1.2452528
118	0x3f753f17	0.9579939
119	0x3fd4fa6b	1.6638921
120	0x3ff259a3	1.8933605
121	0x3fd882b0	1.6914883
122	0x3fda3eb4	1.7050385
123	0x3fc9661f	1.573429
124	0x3fdde36e	1.7335031
125	0x3f49abe6	0.7877792
126	0x3fd61ac2	1.6726916
127	0x3fe3b057	1.778819

bn2.bias f4 [128]
0	0x3e00cb81	0.1257763
1	0x3e9f464c	0.3110832
2	0x3de92d6e	0.11385618
3	0x3e7eeeb1	0.24895741
4	0xbd92d8b3	-0.07170238
5	0xb9db4a25	-0.00041826177
6	0x3dffd0f3	0.12491026
7	0x3e17348a	0.14766136
8	0x3e172561	0.14760353
9	0x3ddae845	0.10688833
10	0x3ea6635b	0.32497677
11	0x3e822316	0.25417393
12	0x3ed0aef5	0.40758482
13	0x3e8afcf4	0.27146113
14	0x3e6bd8ff	0.23031996
15	0x3ec81dd3	0.39085254
16	0x3e2d17b1	0.16903569
17	0x3e5323d6	0.20619139
18	0x3e7ac11e	0.24487731
19	0x3e3afa68	0.18259585
20	0x3eaa5a72	0.3327213
21	0x3d8bd848	0.06828362
22	0xbedda568	-0.43290257
23	0x3e9b18f9	0.3029249
24	0xbe95819e	-0.29200453
25	0x3bc70213	0.0060732453
26	0xbd388a7f	-0.045053955
27	0x3eb0d379	0.3453634
28	0x3deffbd3	0.117179535
29	0x3dc02941	0.093828686
30	0x3eb2ab25	0.34896198
31	0x3e8e83a9	0.27834824
32	0x3e4070e9	0.18793072
33	0x3e98d138	0.2984712
34	0x3e06c6aa	0.13161722
35	0x3deea37b	0.11652275
36	0x3e4c2b45	0.19938381
37	0xbe28d9e0	-0.16489363
38	0x3eb8cdec	0.36094606
39	0x3e8a08d7	0.2695987
40	0x3e82b26a	0.25526744
41	0x3e10ab1d	0.14127775
42	0x3e91ec49	0.28500584
43	0x3e7a0dea	0.2441937
44	0x3e87b6d5	0.26506677
45	0x3e88a3a1	0.2668734
46	0x3e95e949	0.29279545
47	0xbdbc4aa2	-0.091939226
48	0x3ec1e8e3	0.3787299
49	0x3e5e5e49	0.21715654
50	0x3e4580a5	0.19287355
51	0x3ec5a562	0.3860274
52	0x3dacf027	0.08444243
53	0x3ea2ed08	0.31821465
54	0x3e5ff162	0.21869424
55	0x3e0fbc50	0.1403668
56	0x3e2cd7a2	0.16879132
57	0x3e61bec2	0.22045425
58	0x3e6be775	0.23037513
59	0x3e205bc8	0.15660012
60	0xbd34fbee	-0.04418557
61	0x3e95a10c	0.29224432
62	0x3e67cb27	0.2263609
63	0xbe2a9aa3	-0.16660552
64	0x3e47d00a	0.19512954
65	0xbe1eb246	-0.15497693
66	0x3d456d92	0.048200198
67	0x3c51a629	0.012795963
68	0x3e8bb699	0.27287748
69	0x3e18b85a	0.14914075
70	0x3ea97e14	0.33104002
71	0xbb135883	-0.0022483177
72	0x3e810fe4	0.25207436
73	0x3e7fa210	0.24964166
74	0x3e72a89c	0.23697132
75	0x3e9b2663	0.30302724
76	0x3dc6bc0e	0.09703837
77	0x3e323e8f	0.17406677
78	0x3ed19e3c	0.40941036
79	0xbe1c9db1	-0.1529453
80	0x3e166744	0.1468783
81	0x3e9a4274	0.30128825
82	0x3eb64cc6	0.35605448
83	0xbf34b8ba	-0.7059437
84	0x3ee6ef07	0.45104238
85	0x3e0137b8	0.12618911
86	0x3e903af8	0.2816999
87	0xbdce14cd	-0.10062561
88	0x3e9bcbaf	0.30428836
89	0xbe0f834e	-0.14014933
90	0x3e372bcf	0.17887805
91	0x3e8441fd	0.25831595
92	0x3da8179f	0.0820763
93	0x3e737b67	0.23777543
94	0x3e512ec0	0.2042799
95	0x3e343652	0.17598847
96	0x3dc5e198	0.09662169
97	0x3dc44315	0.095831074
98	0x3e649be3	0.22325091
99	0xbcaca4ba	-0.021074641
100	0x3ce560bf	0.028000234
101	0x3dfcb7e7	0.12339764
102	0x3e867e76	0.26268357
103	0xbe3e8601	-0.18605806
104	0x3d026ae6	0.031840228
105	0x3dc1fa17	0.09471529
106	0x3ea0c2ba	0.31398565
107	0xbd8de95d	-0.06929276
108	0x3dd47395	0.10373608
109	0x3e8f32c5	0.27968422
110	0x3e80368a	0.2504161
111	0x3e494d31	0.19658352
112	0x3e6cdcb7	0.23131071
113	0x3e5ff002	0.218689
114	0x3e6fce05	0.23418434
115	0x3dc402a1	0.09570814
116	0x3df07c86	0.11742501
117	0x3cc35ba1	0.023847403
118	0xbea94344	-0.33059132
119	0x3e8ea0a6	0.2785694
120	0x3e8086ce	0.25102848
121	0x3dbd5c76	0.09246151
122	0x3e6d865c	0.23195785
123	0x3e659257	0.22419105
124	0x3eb3ddcd	0.35130158
125	0x3e0fddc9	0.14049448
126	0x3e821761	0.25408462
127	0x3bc847aa	0.0061120586

fc3.weight f4 [24, 128]
0	0x3c9a17e5	0.018810222
1	0x3e0f262b	0.13979404
2	0xbd892dc0	-0.06698179
3	0x3e011739	0.12606515
4	0x3df13f86	0.11779694
5	0x3c85c847	0.016330851
6	0x3e955265	0.29164425
7	0x3d9384d7	0.072030716
8	0x3e5e6cc0	0.21721172
9	0x3eb11040	0.3458271
10	0x3e7e7c28	0.2485205
11	0x3e8364aa	0.25662738
12	0x3e2c2fd1	0.16815116
13	0x3e5bd437	0.21467672
14	0x3e02e9c3	0.12784486
15	0x3e148643	0.14504342
16	0x3d9aef87	0.075652175
17	0x3e910b4a	0.28328925
18	0xbd9b2890	-0.07576096
19	0x3ef12855	0.47101083
20	0x3e4150f3	0.18878536
21	0x3dda989c	0.10673639
22	0xbd957244	-0.07297185
23	0x3e033382	0.12812617
24	0x3d7af4de	0.06126868
25	0x3e2bd90d	0.16782017
26	0x3d74ae4d	0.05973654
27	0x3d8a0574	0.06739321
28	0x3dd14c80	0.10219669
29	0x3d8e3b4f	0.06944906
30	0x3e296259	0.16541423
31	0x3d3335a8	0.043752342
32	0xbd7428d0	-0.059609234
33	0x3e343143	0.17596917
34	0x3e85f5fa	0.26164228
35	0xbdda76e0	-0.10667205
36	0x3e1d4d7f	0.15361594
37	0x3d98d8aa	0.074632004
38	0x3e82f60c	0.25578344
39	0x3de0a505	0.10968975
40	0x3e8f7c9d	0.2802476
41	0xbdad9ea0	-0.08477521
42	0x3e6cbc9c	0.23118824
43	0x3da0f13b	0.07858511
44	0x3df8ffcf	0.121581666
45	0x3e35954e	0.17732736
46	0x3e60f095	0.21966775
47	0x3ddc71df	0.10763907
48	0x3e1f94e2	0.15584138
49	0x3ddd52b5	0.10806791
50	0x3e61791a	0.22018853
51	0x3e3a5398	0.18195951
52	0x3dd47579	0.10373969
53	0x3e2bc5b4	0.16774637
54	0x3e481142	0.19537833
55	0x3e31153a	0.17293254
56	0x3e0f0dbd	0.13970084
57	0x3d95ec42	0.07320453
58	0x3ec4c0c7	0.38428327
59	0xbe071870	-0.13192916
60	0xbeae45be	-0.34037584
61	0x3e319bfd	0.17344661
62	0x3d847abc	0.06468722
63	0x3be208a0	0.006898001
64	0x3e68b39a	0.22724763
65	0x3cdff1cf	0.027336983
66	0x3d5487f4	0.051887468
67	0xbe0c2368	-0.13685381
68	0x3e1fe286	0.15613756
69	0x3e701425	0.23445185
70	0x3e8185fb	0.2529753
71	0xbddc91ae	-0.10769974
72	0x3e99bd51	0.3002725
73	0x3ea31c4c	0.31857526
74	0x3e16228a	0.14661613
75	0x3e311ab9	0.1729535
76	0x3eb8f501	0.36124423
77	0x3e82e464	0.25564873
78	0x3e7d0e51	0.24712493
79	0xbe954a7f	-0.29158399
80	0x3e5c37e6	0.21505699
81	0x3e45b1fc	0.19306177
82	0x3dd78cb9	0.105248876
83	0xbd4e78d9	-0.050408218
84	0x3e1dc71d	0.15407987
85	0xbc5ee98c	-0.013605487
86	0x3e89e6bc	0.2693385
87	0xbe0f75b0	-0.14009738
88	0x3e74b375	0.23896582
89	0x3caf8934	0.021427728
90	0xbca9a4de	-0.020708498
91	0x3eaae526	0.3337795
92	0xbe11f754	-0.14254504
93	0x3ef67c88	0.48141885
94	0x3d029cc5	0.03188779
95	0x3e122574	0.142721
96	0x3daf1634	0.08549157
97	0xbcb304ba	-0.02185284
98	0x3defae83	0.11703207
99	0x3e6ef816	0.23336825
100	0x3d14d934	0.036339954
101	0x3e0eef6a	0.13958517
102	0x3eb59c17	0.3547065
103	0xbcb8cd6b	-0.022558888
104	0x3d542364	0.051791564
105	0x3db57e2a	0.088619545
106	0x3e10ee30	0.14153361
107	0xbecd6ec9	-0.40123585
108	0x3e30d1ed	0.1726758
109	0x3e184753	0.14870958
110	0x3e1b05eb	0.15138976
111	0x3e3c8489	0.18409933
112	0x3df1b178	0.118014276
113	0x3e01e74f	0.12685893
114	0x3dc5b15e	0.09652971
115	0x3d9520f3	0.07281675
116	0x3e6692de	0.22516963
117	0x3da3a753	0.07990899
118	0x3db47e8d	0.088132
119	0x3e5a4d07	0.21318446
120	0x3ea4ddef	0.32200572
121	0x3e325678	0.17415798
122	0x3d939ba4	0.072074205
123	0x3e5c3b9b	0.21507113
124	0x3e228f5c	0.15875
125	0x3cbdc8b0	0.023166984
126	0x3ecaa5ed	0.39579716
127	0x3e63bb33	0.2223938
128	0x3cf5b88f	0.029995231
129	0x3e17b72b	0.14815967
130	0x3de7fa7a	0.113270715
131	0x3e859914	0.26093352
132	0x3e3c8751	0.18410994
133	0x3b5bb930	0.0033527128
134	0xbdd3b12e	-0.10336529
135	0x3e7aa359	0.24476375
136	0x3dc6e274	0.09711161
137	0x3e8f54b8	0.27994323
138	0x3e73d248	0.23810685
139	0x3e71a700	0.23598862
140	0x3e7cd3e3	0.24690203
141	0x3e3d8859	0.18509044
142	0x3e688228	0.227059
143	0x3e59d398	0.21272123
144	0x3b6060d3	0.00342374
145	0x3e803f79	0.25048426
146	0x3d2e579c	0.04256402
147	0x3ebb55f7	0.36589023
148	0x3e83c6ef	0.25737712
149	0x3e5faa17	0.21842228
150	0xbe159f6d	-0.14611597
151	0x3e41d9f0	0.18930793
152	0x3db4b3d5	0.08823363
153	0x3e42ce94	0.19024116
154	0x3d23ce3c	0.039991602
155	0x3d5b6bdb	0.053569656
156	0x3e1e2ba9	0.15446343
157	0x3e6e11a9	0.23248924
158	0x3e77164a	0.24129596
159	0x3e28c1bd	0.16480155
160	0x3c8ad969	0.016949372
161	0x3e8082c2	0.2509976
162	0xbc2081dd	-0.009796587
163	0x3d94bda4	0.072627336
164	0x3e0c8b94	0.1372512
165	0x3c9001b8	0.017578945
166	0x3ecccd2c	0.40000284
167	0x3e8b5d6f	0.27219722
168	0x3e512778	0.20425212
169	0x3dede3c0	0.116157055
170	0x3d99f847	0.07518058
171	0x3e2e42b2	0.1701763
172	0x3deb42c9	0.11487348
173	0x3e9912a6	0.2989704
174	0x3e3a88e1	0.18216278
175	0x3d650614	0.055914
176	0x3e5657c3	0.20931916
177	0x3c1061f6	0.008812418
178	0x3c1f44e2	0.009721013
179	0x3e6498b7	0.22323881
180	0x3e33f555	0.17574055
181	0x3e938417	0.28811714
182	0x3e5e9112	0.21735027
183	0x3ea4ff3d	0.3222598
184	0x3e52dab5	0.20591243
185	0x3eb05525	0.3443996
186	0x3e853bdd	0.26022235
187	0x3ebc44f5	0.3677136
188	0x3eb2ee11	0.34947255
189	0x3e7ac0a8	0.24487555
190	0x3de1ebbb	0.1103129
191	0x3c0951e6	0.0083813425
192	0x3e42b8f0	0.1901586
193	0x3c4e43bd	0.012589392
194	0xbe9f0a89	-0.31062725
195	0x3c6ae0d6	0.014335832
196	0x3e3dfedf	0.18554257
197	0x3ea12232	0.314714
198	0x3e93b905	0.28852096
199	0x3d4ea849	0.050453458
200	0xbcd6970e	-0.026195075
201	0x3ec2135c	0.37905395
202	0x3e26e26b	0.16297309
203	0x3ea5cb8d	0.3238186
204	0xbee5b607	-0.44865438
205	0x3e1d4c53	0.15361147
206	0x3e8eadb2	0.27866894
207	0x3dfaa4d6	0.12238471
208	0x3e5cc1fc	0.21558374
209	0xbe0fed5b	-0.14055388
210	0x3d10b1e2	0.035325892
211	0xbdac6854	-0.084183365
212	0x3cacaf2a	0.021079618
213	0x3e88ce2a	0.2671979
214	0x3e7e79c6	0.2485114
215	0xbd92ceb3	-0.07168331
216	0x3da52aed	0.08064828
217	0xbd3b672f	-0.0457527
218	0x3e1c3675	0.15255149
219	0x3e819d8e	0.25315517
220	0xbe8221d8	-0.25416446
221	0x3e1f54a8	0.15559638
222	0x3daceecb	0.08443984
223	0x3de72f3c	0.11288306
224	0xbdb1f8e1	-0.08690048
225	0x3d2cd721	0.04219735
226	0x3e0d8651	0.13820769
227	0xbd91190f	-0.07084858
228	0xbcef8ee7	-0.029242946
229	0x3e619e41	0.22033025
230	0x3ed02c17	0.40658638
231	0xbd932de5	-0.07186488
232	0x3e0859a6	0.13315448
233	0x3e34414d	0.17603035
234	0x3e88cd2f	0.26719043
235	0x3cdb73c6	0.026788604
236	0x3e967202	0.29383856
237	0x3e0842e9	0.13306774
238	0x3e5f1bd2	0.21787956
239	0x3dbaa30e	0.091131315
240	0x3d2ba3c6	0.041904233
241	0x3e180412	0.14845303
242	0x3e665bde	0.22495982
243	0x3d93b509	0.07212264
244	0x3e87e177	0.26539204
245	0x3e164f04	0.1467858
246	0x3db77d82	0.089594856
247	0x3e12a301	0.14319994
248	0x3ea74e7b	0.32677063
249	0x3dd48943	0.10377743
250	0x3dc4f981	0.096179016
251	0x3e54bec1	0.20775892
252	0x3e9fa145	0.31177726
253	0x3c470f91	0.012149707
254	0x3d608363	0.0548128
255	0x3e6a7d80	0.22899437

fc3.bias f4 [24]
0	0x3f0009d5	0.50015
1	0x3ee64fa9	0.4498265
2	0x3edafafa	0.42769605
3	0x3f0119e6	0.5043014
4	0x3ee40527	0.4453518
5	0x3eb2b379	0.34902552
6	0x3ed33580	0.41251755
7	0x3f19fccf	0.6015138
8	0x3eb74b83	0.35799798
9	0x3ebf414f	0.37354514
10	0x3eebaf98	0.46032405
11	0x3eb5d324	0.3551265
12	0x3ea58dca	0.3233474
13	0x3ec19c68	0.3781464
14	0x3eddae2c	0.43296945
15	0x3eeab437	0.45840618
16	0x3eff0d8f	0.49815032
17	0x3ef6b8d3	0.48187885
18	0x3f14ec01	0.58172613
19	0x3effa22c	0.49928415
20	0x3eebbc2c	0.46042
21	0x3eef6aca	0.4676116
22	0x3ec3a27f	0.38209912
23	0x3ed32cef	0.4124522
